Android/Marusys/app/src/main/assets/trigger_word_detection_model_largeDataSet_MelIntoLayer_sr16000_B32_lr1e-4_pat20.tflite (tflite, 520216 bytes, 22 tensors)

model_4/batch_normalization_14/batchnorm/mul_1;model_4/batch_normalization_14/batchnorm/add_1;model_4/dense_4/MatMul;model_4/dense_4/BiasAdd f4 [1, 64]
000000 96 92 8c bb 44 93 66 be da 0c 08 be 37 60 b5 be
       -0.0042899353 -0.22517115 -0.13286152 -0.3542497
000010 95 d9 41 3e 73 7a 27 3e 80 5c 45 be c9 d3 71 be
       0.18930657 0.16355304 -0.19273567 -0.23615946
000020 c8 b0 dd 3e 19 d2 3e 3d 35 af 44 3e d9 69 ce be
       0.43298936 0.046587083 0.19207461 -0.4031513
000030 37 0f ad be 1b ad 74 be 43 3e 15 3e 76 cf 74 bc
       -0.3380067 -0.2389416 0.14574532 -0.014942041
000040 a2 97 49 be 9b 3f 5f be d8 7c 9e be 35 fc 87 3e
       -0.1968675 -0.21801607 -0.30954623 0.26559606
000050 e0 97 fa 3e 16 7f 13 3e 22 26 ca bd 19 01 a7 be
       0.48943996 0.14403948 -0.098705545 -0.32618025
000060 97 b6 b7 3e 55 eb 85 3e 98 ab 12 be 88 ce 41 3e
       0.35881492 0.26156107 -0.1432327 0.18926442
000070 a6 8b d6 3e 83 f9 31 bd 21 52 a6 be da c8 9a 3e
       0.41903418 -0.043450844 -0.32484534 0.30231363
000080 2f 4a f9 3b 1d 4b 88 3d 6f 46 34 be 24 89 2a be
       0.0076077203 0.06654952 -0.17604993 -0.16653877
000090 a5 e8 c2 3e 70 79 3d be e5 af 49 be e3 c3 88 3d
       0.3806812 -0.18503356 -0.19696005 0.066779874
0000a0 c7 04 66 be 0b 22 63 be 55 9a 4a be b8 fb 04 3e
       -0.2246276 -0.22180955 -0.19785435 0.12986648
0000b0 db 0e d7 be 7c 39 85 3e c2 8e 84 be c3 ad bc 3d
       -0.4200352 0.2602042 -0.25890166 0.0921283
0000c0 bd bc 39 3e 35 ab 81 3e 59 24 be be 07 64 14 be
       0.18138404 0.25325933 -0.37137106 -0.14491282
0000d0 41 47 ac 3e f3 96 26 3c 1d eb 9d be 4e 2e 81 be
       0.33648112 0.010167825 -0.3084344 -0.2523064
0000e0 3c 8f d6 bd 1e 4a 8f 3e cd 63 91 be cc 64 ac 3e
       -0.104765385 0.27986234 -0.28396454 0.33670652
0000f0 02 4f 9e be 6f 3f b5 be a9 e9 5f be 58 89 ae 3e
       -0.30919653 -0.35399958 -0.21866478 0.3408916

model_4/conv1d_4/Conv1D f4 [32]
000000 00 00 00 00 00 00 00 00 00 00 00 00 00 00 00 00
       0.0 0.0 0.0 0.0
000010 00 00 00 00 00 00 00 00 00 00 00 00 00 00 00 00
       0.0 0.0 0.0 0.0
000020 00 00 00 00 00 00 00 00 00 00 00 00 00 00 00 00
       0.0 0.0 0.0 0.0
000030 00 00 00 00 00 00 00 00 00 00 00 00 00 00 00 00
       0.0 0.0 0.0 0.0
000040 00 00 00 00 00 00 00 00 00 00 00 00 00 00 00 00
       0.0 0.0 0.0 0.0
000050 00 00 00 00 00 00 00 00 00 00 00 00 00 00 00 00
       0.0 0.0 0.0 0.0
000060 00 00 00 00 00 00 00 00 00 00 00 00 00 00 00 00
       0.0 0.0 0.0 0.0
000070 00 00 00 00 00 00 00 00 00 00 00 00 00 00 00 00
       0.0 0.0 0.0 0.0

model_4/conv1d_4/Conv1D1 f4 [32, 1, 3, 128]
000000 01 ee e7 bd 89 60 81 bd 56 b0 3a bd 8d 79 ad 3d
       -0.113246925 -0.06317241 -0.045578323 0.084704496
000010 43 3d 6d bc 26 e6 ae 3c a9 32 dc bd 14 7e e9 bc
       -0.014479938 0.021349978 -0.1075185 -0.028502502
000020 29 fb 9f 3d c4 51 e8 3d a3 c2 77 3c de ec b8 bd
       0.07811577 0.113437206 0.015122089 -0.09029554
000030 48 2f 13 be e4 87 48 3d da d2 32 3c 7c c7 4e 3d
       -0.14373505 0.04895772 0.010914529 0.050483212
000040 be b0 17 bd 33 30 e3 3d 50 a9 a7 3d af 1b 33 3d
       -0.03703379 0.11093178 0.08186591 0.043727573
000050 8c 90 e1 3d 85 9f 3f 3c b4 80 3f 3d 49 e4 91 3d
       0.11013898 0.011695747 0.0467536 0.0712362
000060 8d a9 6c bd f5 2f 67 bd ff 59 c1 bb 4a 43 5a 3d
       -0.057778884 -0.05644222 -0.005900621 0.053286828
000070 dc d8 b5 bc 2a 2c 6a 3d 4c a8 d6 bc a9 a0 f5 bd
       -0.022198133 0.057171024 -0.026203297 -0.11993534
000080 ab 1d 58 bd f3 f4 9f 3d 0a 7a 12 3d 3c c0 94 3d
       -0.05276267 0.07810392 0.035760917 0.07263228
000090 4b b6 1c be 7d 34 61 3d e0 55 a4 3d a7 22 dc bd
       -0.15303914 0.054981697 0.08024192 -0.10748797
0000a0 50 16 8f 3d 6a 9c a9 3d 4f 7f 8b bd 93 b6 9f bd
       0.06986678 0.08281787 -0.068113916 -0.07798495
0000b0 12 ce 63 3c 68 1c d8 bc 25 4b 80 3d 44 75 99 3d
       0.013904111 -0.026380733 0.06264333 0.0749307
0000c0 d9 f9 d7 3d d9 e2 92 bc c3 49 8b bd b8 f4 fa bb
       0.105457015 -0.017930435 -0.06801178 -0.0076585673
0000d0 0e 5a e4 bc bb a1 fa bc 92 c1 3d 3b 28 21 6b bd
       -0.027874973 -0.030594697 0.0028954488 -0.057404667
0000e0 74 55 f2 3d 1a c1 04 3e 1c 38 5a 3d 25 f3 82 3d
       0.11832705 0.12964287 0.053276166 0.063940324
0000f0 b5 fc a9 3b 20 a1 99 3d 0e c1 8d 3d 11 28 88 bd
       0.0051875957 0.07501435 0.06921588 -0.06648267
000100 04 dd 01 be 36 a6 95 3d af 5d 40 3c 51 27 b5 bb
       -0.12681967 0.07307093 0.011741086 -0.0055283685
000110 b6 3f f4 bc 52 94 94 ba bc 7c 9f bd 28 b1 06 bc
       -0.029815536 -0.0011335707 -0.07787463 -0.008220948
000120 c6 91 33 39 e3 a2 79 bd 44 34 77 bd 1a 6a 63 bd
       0.00017125075 -0.060946357 -0.06035258 -0.05552111
000130 aa 47 85 bc fd 46 c0 3d 37 30 91 3d 1b 34 1d bd
       -0.016269524 0.0938854 0.070892744 -0.03837977
000140 44 3f cd 3d 26 14 77 3c eb 2e e1 3d 55 3e aa 3c
       0.100218326 0.015080487 0.10995277 0.020781675
000150 d2 d1 7b 3d 8f 81 69 bd fc 99 e1 3c ee ad 38 3d
       0.061479397 -0.057008322 0.027539246 0.045087747
000160 18 11 f4 3d 9a df ae 3b 7d 1d 1d bb 8e 81 9d bd
       0.11917323 0.005336714 -0.0023973875 -0.07690726
000170 03 f8 b7 3d ad 98 c8 3c fd ed 7a 3d 8d fc 0a bd
       0.08982851 0.024486864 0.06126212 -0.033932257
000180 47 ab 65 3d 81 81 db bc e0 82 1b 3e 84 dd 8d bd
       0.056071546 -0.02679515 0.15186644 -0.069270164
000190 c8 a7 c5 3d 4e 6d 88 3d 2b a7 bc bd 0b 6f b9 bd
       0.09651142 0.06661473 -0.09211572 -0.09054383
0001a0 d5 f4 a6 bc 3c 70 f7 3d 34 e6 75 bc 3a bc 81 3c
       -0.020380417 0.12081954 -0.015008498 0.015836824
0001b0 d3 b5 a1 3c c8 1f 0f 3d 44 e9 c0 bd f8 c3 b2 3b
       0.01974002 0.03494242 -0.09419492 0.00545549
0001c0 48 09 90 bd b0 b5 a4 bd ca e5 e4 bd 49 5c 0e bd
       -0.0703302 -0.08042467 -0.11176641 -0.03475598
0001d0 ba 44 6a 3d 83 34 b5 bd e1 b1 35 bd 83 b7 59 bd
       0.05719445 -0.088479064 -0.04435909 -0.053153526
0001e0 50 b4 db 3d aa 90 ea 3c ae f0 80 3d f4 c2 89 3d
       0.10727751 0.028633434 0.06295906 0.067266375
0001f0 e2 43 93 3d 01 df 35 3c b6 d4 0a 3d c6 e5 9f 3d
       0.07190682 0.011100532 0.033894263 0.07807498
000200 96 42 4e bd 15 f5 9d 3c a7 9b c4 bd 93 dc 92 bd
       -0.05035647 0.019281903 -0.09600001 -0.071709774
000210 5e da 8f 3d 54 85 8d 3d 8c 16 80 bc 33 19 90 bd
       0.07024072 0.06910196 -0.015635751 -0.07036056
000220 d6 0f e0 3d 7f c8 3b bd b0 65 18 bd 78 5d d3 3c
       0.109405205 -0.045845505 -0.03720635 0.025801405
000230 08 f2 81 3d a0 2c fe 3c 59 f6 08 bd 5e 28 a9 3d
       0.06344992 0.031027138 -0.03343806 0.082596526
000240 09 9a cd 3c 83 ed 81 bc eb af 72 bd a9 fc fd bc
       0.025097864 -0.015860325 -0.0592498 -0.031004267
000250 95 81 eb 3d 41 ac 1b bd 6c eb 08 3d b2 5b 84 bb
       0.11499325 -0.03800607 0.03342764 -0.0040392512
000260 af 47 4b 3c 99 32 13 3d 1b e8 f2 bd cf 04 74 bc
       0.012407227 0.035936926 -0.11860677 -0.014893725
000270 2d e0 3a bd 71 c9 75 bd 3f 34 bb bc d4 6d 9b bd
       -0.045623947 -0.060006563 -0.022852061 -0.075893074
000280 8b 47 40 bd 0b 32 87 bd c3 99 27 bd 22 ba a9 bd
       -0.04694323 -0.06601342 -0.040918123 -0.08287455
000290 e3 4f 86 bc 49 49 bd ba 6f 19 07 bd e7 56 0f bd
       -0.016395515 -0.0014441396 -0.03298324 -0.034994986
0002a0 3b ed 18 bc e5 c4 58 bc eb 37 ad bd a6 3d f8 ba
       -0.009333904 -0.013230537 -0.08457931 -0.0018939271
0002b0 e0 1e 2f 3d 60 dd 2a 3d d3 6b 4d 3d e1 7b e9 3c
       0.042754054 0.041715026 0.050151657 0.028501453
0002c0 6d 7e db bd a7 b5 9d bd 3d 1a 9a 3c df 92 f9 3d
       -0.10717473 -0.07700663 0.01881134 0.121862166
0002d0 7f 46 76 3d 96 9a c6 3d 6f 62 84 bd 54 ae 69 3d
       0.060125824 0.09697454 -0.06464087 0.057051018
0002e0 fb 1a dc 3c 7a 61 6f bd 11 67 95 3d a5 ad b8 bc
       0.026868334 -0.05844257 0.07295049 -0.022543738
0002f0 cc 17 bd 3d 5f 1c a7 3d 82 35 32 3d 35 6b a6 bd
       0.092330545 0.08159708 0.04350806 -0.08125917
000300 75 bc 68 3d 4b 76 91 3d 24 d9 fb 3c 30 62 f4 3b
       0.05682035 0.07102641 0.03074319 0.007457994
000310 17 c0 83 3c ed c0 eb 3d 0e c2 ad 3d ac 1e 2f bd
       0.016082807 0.11511407 0.084842786 -0.04275386
000320 62 ea 4a bd 5d db db 3d b4 3f 96 bd 6a bf af bc
       -0.04953993 0.107351996 -0.07336369 -0.021453578
000330 1f f7 9f bd 6d af 58 bd de e8 96 3b 97 d8 39 3d
       -0.078108065 -0.052901674 0.0046053967 0.04537257
000340 9e 6a c6 3d e9 99 be bd 95 76 ab 3d f2 a9 73 ba
       0.09688304 -0.093067 0.08372227 -0.0009295038
000350 e0 8b e2 3d 5f 99 37 bd c5 6f 1a 3d f4 01 a5 bd
       0.11061835 -0.044824 0.037704248 -0.08057013
000360 01 a9 90 bd 19 e4 b0 3c 77 12 d9 bd e2 4a 3c 3d
       -0.07063485 0.02159314 -0.10599225 0.04596985
000370 f8 f5 b2 3d a0 2a fb bc 5b d4 d1 3d cf e1 8c 3b
       0.08738321 -0.030659974 0.10245582 0.0042993794
000380 3e 3d 4e bd 73 1c 01 3e ee 1d fa bc 5d 23 ba 3d
       -0.050351374 0.12608509 -0.03053185 0.09088776
000390 38 0b 86 3d a1 95 90 3d a9 b7 c2 bc b4 70 74 3d
       0.065451086 0.070597894 -0.023769217 0.059677795
0003a0 dd 8a 20 3d cb 3f 2b bd d7 c5 40 3d 5c 50 44 3d
       0.03919493 -0.041808885 0.047063675 0.0479282
0003b0 fc f1 c7 bc 96 a7 7c bd 65 9a c4 bd 8b 68 4f 3d
       -0.02440738 -0.06168326 -0.09599761 0.05063681
0003c0 9b 75 79 3d 8d e3 13 bd 24 29 4f 39 09 cb a8 bd
       0.060903173 -0.03610568 0.00019756384 -0.08241851
0003d0 39 fa cf bd 1f 75 dc bd 75 95 40 bc 1e 16 1f bd
       -0.10155148 -0.107645266 -0.011754383 -0.038839452
0003e0 95 54 cd 3d 76 33 bb 3d 9f 1a 3b 3d 56 70 de 3c
       0.10025898 0.09140675 0.045679685 0.027153175
0003f0 33 6f 09 3d 50 17 84 bd 04 9f fb 3d 28 24 b0 bc
       0.033553313 -0.06449759 0.12286189 -0.021501616

model_4/batch_normalization_13/batchnorm/sub f4 [64]
000000 2b 5e 8f 3e de 52 66 3d 67 e8 e3 be f4 51 56 3e
       0.28001532 0.056231372 -0.44513246 0.209297
000010 8d fb 63 be 9e d2 4c be e5 36 09 3d a4 b8 ac bb
       -0.22263928 -0.20002219 0.033499617 -0.0052710343
000020 28 bd 6d 3e e3 0e ae bd 5b 3c ea 3d 20 29 d7 bc
       0.23216689 -0.08498933 0.11437293 -0.026264727
000030 88 94 87 3e f7 2f a3 3d 8c fb 94 3d bd 40 1a be
       0.26480508 0.07968133 0.07274541 -0.15063758
000040 8a 3b a2 bd a4 6b 16 3e 90 36 fb bb 06 03 30 be
       -0.079215124 0.14689499 -0.0076664165 -0.17188653
000050 90 a6 4a 3b 86 38 2e be 5a 9d ae 3d 32 73 92 3d
       0.0030922033 -0.1701375 0.08526106 0.07150878
000060 f1 c0 cc bd e2 90 c4 3d 90 33 f9 3d fa f6 65 3d
       -0.09997738 0.09597947 0.12168038 0.05614374
000070 22 a2 3b 3e 35 97 16 3e 10 a4 88 bd ea fd 8e 3e
       0.18323568 0.14706118 -0.066719174 0.27928096
000080 40 b3 13 bd aa 76 93 3e 36 10 82 3c 20 b4 22 be
       -0.036059618 0.2880147 0.01587687 -0.15889025
000090 20 92 33 be 2f 03 8d 3e 64 7d 83 3d 6f 14 1c be
       -0.17536211 0.2754149 0.06420401 -0.1524217
0000a0 08 6a e4 3d 1a 8d 4d 3e 7e 31 d2 bd d8 70 24 3c
       0.11153036 0.20073357 -0.10263346 0.01003667
0000b0 a2 09 aa 3e 34 51 bb 3d 07 07 a1 3d fc 22 8e bd
       0.33210474 0.09146348 0.078626685 -0.069402665
0000c0 82 42 aa be b0 2b 3d be c3 72 13 3e b6 b7 5f 3e
       -0.33253866 -0.18473697 0.14399247 0.21847424
0000d0 6d 5b 2b be 19 17 bd 3d 40 a3 20 ba 34 0f 09 3e
       -0.16734095 0.09232921 -0.0006127842 0.13384706
0000e0 98 11 70 be 32 66 3d bd 67 2b 37 3e 06 d0 f1 be
       -0.23444211 -0.04624004 0.1788765 -0.47229022
0000f0 86 de 3b bd cf f6 2b 3e 75 1e f3 3d 28 28 03 3d
       -0.04586651 0.16793369 0.118710436 0.032020718

model_4/batch_normalization_13/batchnorm/mul f4 [64]
000000 59 13 10 40 a5 fc 15 40 e3 16 24 40 a1 b4 21 40
       2.251181 2.3435452 2.563897 2.5266497
000010 10 8f 05 40 b4 e2 34 40 60 ec f3 3f e7 2f f8 3f
       2.0868568 2.8263369 1.9056511 1.9389619
000020 e5 45 23 40 cd 85 0a 40 ed c9 17 40 6d 59 15 40
       2.551141 2.1644166 2.3716996 2.333583
000030 f7 d3 19 40 36 62 15 40 46 81 f9 3f 3e 14 df 3f
       2.4035623 2.3341193 1.9492576 1.7428052
000040 50 3b 11 40 62 6e 13 40 d3 43 18 40 f5 ae 1d 40
       2.2692451 2.3036122 2.3791397 2.4638035
000050 0f cc 28 40 4f 3a be 3f b4 86 0d 40 94 51 e2 3f
       2.6374547 1.4861544 2.2113466 1.7681146
000060 2e ba 07 40 f1 ed 12 40 47 32 16 40 40 af 02 40
       2.1207385 2.2957728 2.3468187 2.0419464
000070 aa 0f 3b 40 3d bd 16 40 d3 b5 ed 3f 64 ea 26 40
       2.922831 2.3553002 1.8571113 2.608056
000080 e4 52 00 40 c2 53 39 40 2e 2d eb 3f 9c 2d 1d 40
       2.0050592 2.8957372 1.8373163 2.4559088
000090 ab 9b 32 40 18 e8 06 40 3c d2 18 40 2c e1 37 40
       2.7907512 2.1079159 2.3878317 2.8731184
0000a0 79 bd 09 40 20 15 19 40 d9 6a ff 3f 35 e5 1c 40
       2.1521895 2.3919144 1.9954482 2.4514897
0000b0 73 19 0e 40 e3 b1 e4 3f bf ca 1e 40 57 37 06 40
       2.2203033 1.7866787 2.4811246 2.0971277
0000c0 fa 83 21 40 27 d6 e4 3f df 2d 0a 40 d2 e9 e2 3f
       2.5236802 1.7877854 2.1590497 1.7727606
0000d0 6a 04 16 40 d8 10 02 40 01 14 03 40 4b 19 15 40
       2.3440194 2.032278 2.048096 2.3296688
0000e0 92 6a 17 40 e0 9e f5 3f 50 ba 05 40 ac f7 20 40
       2.3658795 1.918911 2.0894966 2.5151167
0000f0 f2 23 05 40 55 3c 14 40 f9 c8 14 40 aa 8e 06 40
       2.080319 2.3161824 2.3247664 2.1024575

model_4/batch_normalization_12/batchnorm/sub f4 [32]
000000 61 40 3e be fd b6 85 bf 82 73 8e bf 07 01 18 bf
       -0.18579246 -1.0446469 -1.1129 -0.5937657
000010 dd f7 c2 be fc 3b d3 be 32 d3 0a bf 80 30 68 bf
       -0.3807973 -0.41256702 -0.5422851 -0.90699005
000020 0e 4f ee be 04 10 04 bf 32 ae 1f bf 8e c4 4f be
       -0.4654469 -0.5158694 -0.62375176 -0.20289823
000030 38 b6 d7 bd e8 0c 93 be 3f 21 f7 be 57 21 6f bf
       -0.10532802 -0.28720784 -0.48267552 -0.9341025
000040 a0 c2 a3 be 9c c4 30 bf d4 57 c8 be 68 42 6c bf
       -0.31984425 -0.6905 -0.39129508 -0.9228883
000050 b3 c5 fd be c9 2d b7 be 9c 38 e0 be 45 9b a0 be
       -0.49564895 -0.3577712 -0.4379319 -0.3136846
000060 2b 5f c6 be ec 60 7d bf 9f 1f 9b bf 2b 9a f6 be
       -0.38744482 -0.98976016 -1.2119025 -0.48164496
000070 4a 1d 64 bf b4 60 72 bf e2 23 04 bf 6a 28 cf be
       -0.8910719 -0.9467881 -0.5161725 -0.4046052

model_4/batch_normalization_12/batchnorm/mul f4 [32]
000000 60 89 99 3f c0 05 a2 3e 71 30 ae 3e e9 16 b4 3e
       1.1995049 0.31645012 0.34021333 0.3517373
000010 a2 fb 3a 3f d6 a8 34 3f f5 2a ea 3e ac 68 9f 3e
       0.7304021 0.70570123 0.457359 0.31134546
000020 25 c8 d6 3e 19 75 0f 3f 7a e9 36 3f 7f cf 44 3f
       0.41949573 0.5603805 0.71450007 0.76879114
000030 97 ab ab 3f a4 d4 10 3f 85 4a da 3e 2c 99 7d 3e
       1.341174 0.56574464 0.4263498 0.24765462
000040 c9 55 55 3f 36 92 81 3e 0b e6 36 3f ec 08 99 3e
       0.8333402 0.25306863 0.7144477 0.2988962
000050 6b bc 1b 3f 70 6a 88 3f c4 02 2a 3f c6 9f 49 3f
       0.6083438 1.0657482 0.6641047 0.7875942
000060 b3 b9 61 3f 61 f0 ef 3e 56 19 0c 3e 92 ff 08 3f
       0.8817398 0.46863082 0.1368154 0.5351497
000070 39 be b7 3e 86 c8 d9 3e 2a f1 0b 3f b8 60 90 3e
       0.35887316 0.425358 0.5466486 0.2819879

model_4/conv1d_4/BiasAdd/ReadVariableOp f4 [32]
000000 7c 48 ce 3a 17 8a 09 3d 9e 87 a6 3d 80 aa 8c 3b
       0.0015738155 0.03357896 0.08131336 0.004292786
000010 3e bf d0 bd 00 5f 79 38 e3 44 3e 3b e7 d1 64 bc
       -0.101927266 5.9454702e-05 0.002903276 -0.01396606
000020 3f 20 1c bb 14 cb 38 3d fa ea aa 3c 82 d4 d7 3c
       -0.002382293 0.045115545 0.020863999 0.026346449
000030 e2 24 2e bd 25 9f a5 bc 81 a1 e4 bc f9 24 a4 3d
       -0.042515643 -0.020217488 -0.027909042 0.080148645
000040 44 8d 76 bd 70 8f c1 bc ab bf 21 3c 5e ca 1b bd
       -0.060193315 -0.023627967 0.009872357 -0.03803479
000050 0e ff 08 bc e8 5e 2e bd 46 4c 0c bc b6 01 6f bc
       -0.008361591 -0.04257098 -0.008563107 -0.01458781
000060 20 ae b5 3c 22 2d d1 bc 3c 23 2e 3d 51 3e 4b 3d
       0.022177756 -0.025534216 0.04251407 0.049619976
000070 c7 f5 85 bd ce de 6c 3c 13 84 fe 3b e5 c2 87 3c
       -0.06541019 0.014457418 0.0077672093 0.016572425

stft/hann_window/sub_2 f4 [1024]
000000 00 00 00 00 00 00 1e 37 00 e0 1d 38 00 a0 b1 38
       0.0 9.417534e-06 3.7640333e-05 8.46982e-05
000010 00 e8 1d 39 00 b8 76 39 00 a0 b1 39 00 c4 f1 39
       0.00015059114 0.00023528934 0.0003387928 0.00046113133
000020 00 e2 1d 3a 00 d0 47 3a 00 aa 76 3a 00 39 95 3a
       0.00060227513 0.0007622242 0.0009409487 0.0011384785
000030 00 93 b1 3a 00 63 d0 3a 00 a8 f1 3a 80 b1 0a 3b
       0.0013547838 0.0015898645 0.0018436909 0.0021162927
000040 80 c9 1d 3b 80 1b 32 3b 00 a8 47 3b 80 6e 5e 3b
       0.0024076402 0.0027177036 0.0030465126 0.0033940375
000050 00 6e 76 3b c0 d3 87 3b 00 0d 95 3b 00 e3 a2 3b
       0.0037602186 0.0041451156 0.004548669 0.004970908
000060 00 55 b1 3b 40 63 c0 3b c0 0d d0 3b 00 54 e0 3b
       0.005411744 0.0058712065 0.0063492954 0.006845951
000070 00 36 f1 3b e0 59 01 3c 60 66 0a 3c 80 c0 13 3c
       0.0073611736 0.007894963 0.00844726 0.009018064
000080 40 68 1d 3c 40 5d 27 3c c0 9f 31 3c 80 2f 3c 3c
       0.009607375 0.010215104 0.01084131 0.011485934
000090 60 0c 47 3c 40 36 52 3c 00 ad 5d 3c a0 70 69 3c
       0.0121489465 0.012830317 0.013530016 0.014248043
0000a0 00 81 75 3c 00 ef 80 3c b0 43 87 3c 90 be 8d 3c
       0.014984369 0.015738964 0.016511768 0.017302781
0000b0 90 5f 94 3c 90 26 9b 3c a0 13 a2 3c 90 26 a9 3c
       0.018111974 0.018939286 0.019784749 0.02064827
0000c0 50 5f b0 3c e0 bd b7 3c 30 42 bf 3c 10 ec c6 3c
       0.021529824 0.022429407 0.02334699 0.024282485
0000d0 90 bb ce 3c 80 b0 d6 3c e0 ca de 3c 90 0a e7 3c
       0.025235921 0.026207209 0.027196348 0.028203279
0000e0 80 6f ef 3c a0 f9 f7 3c 68 54 00 3d 80 be 04 3d
       0.029227972 0.030270398 0.031330496 0.032408237
0000f0 10 3b 09 3d 10 ca 0d 3d 68 6b 12 3d 18 1f 17 3d
       0.033503592 0.03461653 0.03574696 0.036894888
000100 10 e5 1b 3d 40 bd 20 3d a0 a7 25 3d 30 a4 2a 3d
       0.038060248 0.039242983 0.040443063 0.041660488
000110 d0 b2 2f 3d 78 d3 34 3d 20 06 3a 3d c0 4a 3f 3d
       0.04289514 0.044146985 0.045415998 0.046702147
000120 40 a1 44 3d a0 09 4a 3d c0 83 4f 3d a8 0f 55 3d
       0.048005342 0.049325585 0.050662756 0.052016884
000130 38 ad 5a 3d 68 5c 60 3d 30 1d 66 3d 80 ef 6b 3d
       0.05338785 0.054775625 0.05618018 0.057601452
000140 48 d3 71 3d 70 c8 77 3d f8 ce 7d 3d 64 f3 81 3d
       0.059039384 0.060493886 0.06196496 0.06345251
000150 ec 07 85 3d 08 25 88 3d b4 4a 8b 3d e8 78 8e 3d
       0.064956516 0.06647688 0.06801358 0.06956655
000160 98 af 91 3d c0 ee 94 3d 58 36 98 3d 58 86 9b 3d
       0.0711357 0.072721004 0.0743224 0.075939834
000170 b4 de 9e 3d 68 3f a2 3d 70 a8 a5 3d b8 19 a9 3d
       0.07757321 0.0792225 0.080887675 0.082568586
000180 3c 93 ac 3d f8 14 b0 3d e0 9e b3 3d e8 30 b7 3d
       0.0842652 0.085977495 0.087705374 0.08944875
000190 0c cb ba 3d 44 6d be 3d 84 17 c2 3d c0 c9 c5 3d
       0.09120759 0.092981845 0.094771415 0.096576214
0001a0 f8 83 c9 3d 1c 46 cd 3d 20 10 d1 3d 04 e2 d4 3d
       0.09839624 0.10023138 0.10208154 0.103946716
0001b0 b8 bb d8 3d 30 9d dc 3d 6c 86 e0 3d 5c 77 e4 3d
       0.105826795 0.10772169 0.10963139 0.111555785
0001c0 f4 6f e8 3d 2c 70 ec 3d 00 78 f0 3d 60 87 f4 3d
       0.11349478 0.115448326 0.11741638 0.11939883
0001d0 40 9e f8 3d 98 bc fc 3d 32 71 00 3e ca 87 02 3e
       0.12139559 0.12340659 0.1254318 0.12747112
0001e0 0e a2 04 3e fc bf 06 3e 8a e1 08 3e b8 06 0b 3e
       0.12952444 0.13159174 0.13367286 0.13576782
0001f0 7c 2f 0d 3e d4 5b 0f 3e bc 8b 11 3e 28 bf 13 3e
       0.13787645 0.13999873 0.1421346 0.14428389
000200 1c f6 15 3e 8a 30 18 3e 6e 6e 1a 3e c8 af 1c 3e
       0.14644665 0.14862266 0.15081188 0.1530143
000210 8c f4 1e 3e b8 3c 21 3e 44 88 23 3e 2e d7 25 3e
       0.15522975 0.15745819 0.1596995 0.16195366
000220 6e 29 28 3e fc 7e 2a 3e d8 d7 2c 3e f8 33 2f 3e
       0.16422054 0.16650003 0.16879213 0.17109668
000230 56 93 31 3e ec f5 33 3e b8 5b 36 3e b0 c4 38 3e
       0.1734136 0.1757428 0.17808425 0.1804378
000240 ce 30 3b 3e 10 a0 3d 3e 6c 12 40 3e de 87 42 3e
       0.18280336 0.1851809 0.18757027 0.18997142
000250 5e 00 45 3e e8 7b 47 3e 76 fa 49 3e 00 7c 4c 3e
       0.19238421 0.1948086 0.1972445 0.19969177
000260 82 00 4f 3e f4 87 51 3e 4e 12 54 3e 8e 9f 56 3e
       0.20215037 0.20462018 0.20710108 0.20959303
000270 ac 2f 59 3e a2 c2 5b 3e 68 58 5e 3e f8 f0 60 3e
       0.21209592 0.21460965 0.21713412 0.21966922
000280 4e 8c 63 3e 60 2a 66 3e 2a cb 68 3e a4 6e 6b 3e
       0.2222149 0.22477102 0.22733751 0.22991425
000290 cc 14 6e 3e 96 bd 70 3e fc 68 73 3e fa 16 76 3e
       0.23250121 0.23509821 0.23770517 0.24032202
0002a0 88 c7 78 3e a0 7a 7b 3e 38 30 7e 3e 27 74 80 3e
       0.24294865 0.24558496 0.24823081 0.25088617
0002b0 6d d1 81 3e ea 2f 83 3e 9c 8f 84 3e 7d f0 85 3e
       0.25355092 0.25622493 0.25890815 0.2616004
0002c0 8c 52 87 3e c3 b5 88 3e 22 1a 8a 3e a4 7f 8b 3e
       0.26430166 0.26701173 0.26973063 0.2724582
0002d0 46 e6 8c 3e 04 4e 8e 3e da b6 8f 3e c4 20 91 3e
       0.27519435 0.27793896 0.28069192 0.2834531
0002e0 c0 8b 92 3e ca f7 93 3e e0 64 95 3e fc d2 96 3e
       0.28622246 0.28899986 0.29178524 0.29457843
0002f0 1c 42 98 3e 3c b2 99 3e 58 23 9b 3e 6b 95 9c 3e
       0.29737937 0.30018795 0.30300403 0.30582747
000300 75 08 9e 3e 72 7c 9f 3e 5c f1 a0 3e 30 67 a2 3e
       0.30865827 0.31149632 0.31434143 0.3171935
000310 ec dd a3 3e 8b 55 a5 3e 08 ce a6 3e 63 47 a8 3e
       0.3200525 0.32291827 0.32579064 0.32866964
000320 96 c1 a9 3e 9e 3c ab 3e 78 b8 ac 3e 1e 35 ae 3e
       0.33155507 0.33444685 0.33734488 0.340249
000330 8f b2 af 3e c4 30 b1 3e bd af b2 3e 75 2f b4 3e
       0.34315917 0.34607518 0.34899703 0.35192457
000340 e8 af b5 3e 12 31 b7 3e f0 b2 b8 3e 7e 35 ba 3e
       0.35485768 0.35779625 0.36074018 0.36368936
000350 b6 b8 bb 3e 98 3c bd 3e 20 c1 be 3e 48 46 c0 3e
       0.3666436 0.36960292 0.37256718 0.3755362
000360 0e cc c1 3e 6d 52 c3 3e 60 d9 c4 3e e6 60 c6 3e
       0.37850994 0.38148823 0.38447094 0.38745803
000370 fc e8 c7 3e 9b 71 c9 3e c0 fa ca 3e 69 84 cc 3e
       0.3904494 0.39344487 0.39644432 0.3994477
000380 91 0e ce 3e 32 99 cf 3e 4c 24 d1 3e da af d2 3e
       0.40245488 0.40546566 0.40848005 0.4114979
000390 d8 3b d4 3e 42 c8 d5 3e 14 55 d7 3e 4a e2 d8 3e
       0.41451907 0.41754347 0.42057097 0.42360145
0003a0 df 6f da 3e d2 fd db 3e 1f 8c dd 3e c0 1a df 3e
       0.42663476 0.42967087 0.43270966 0.43575096
0003b0 b3 a9 e0 3e f2 38 e2 3e 7c c8 e3 3e 49 58 e5 3e
       0.4387947 0.4418407 0.44488895 0.4479392
0003c0 59 e8 e6 3e a8 78 e8 3e 31 09 ea 3e f0 99 eb 3e
       0.45099142 0.45404553 0.45710137 0.46015882
0003d0 e1 2a ed 3e 00 bc ee 3e 49 4d f0 3e ba de f1 3e
       0.46321777 0.46627808 0.46933964 0.4724024
0003e0 4d 70 f3 3e 00 02 f5 3e ce 93 f6 3e b3 25 f8 3e
       0.47546616 0.47853088 0.4815964 0.48466262
0003f0 ac b7 f9 3e b2 49 fb 3e c6 db fc 3e e1 6d fe 3e
       0.48772943 0.49079663 0.49386424 0.49693206

linear_to_mel_weight_matrix f4 [513, 128]
000000 00 00 00 00 00 00 00 00 00 00 00 00 00 00 00 00
       0.0 0.0 0.0 0.0
000010 00 00 00 00 00 00 00 00 00 00 00 00 00 00 00 00
       0.0 0.0 0.0 0.0
000020 00 00 00 00 00 00 00 00 00 00 00 00 00 00 00 00
       0.0 0.0 0.0 0.0
000030 00 00 00 00 00 00 00 00 00 00 00 00 00 00 00 00
       0.0 0.0 0.0 0.0
000040 00 00 00 00 00 00 00 00 00 00 00 00 00 00 00 00
       0.0 0.0 0.0 0.0
000050 00 00 00 00 00 00 00 00 00 00 00 00 00 00 00 00
       0.0 0.0 0.0 0.0
000060 00 00 00 00 00 00 00 00 00 00 00 00 00 00 00 00
       0.0 0.0 0.0 0.0
000070 00 00 00 00 00 00 00 00 00 00 00 00 00 00 00 00
       0.0 0.0 0.0 0.0
000080 00 00 00 00 00 00 00 00 00 00 00 00 00 00 00 00
       0.0 0.0 0.0 0.0
000090 00 00 00 00 00 00 00 00 00 00 00 00 00 00 00 00
       0.0 0.0 0.0 0.0
0000a0 00 00 00 00 00 00 00 00 00 00 00 00 00 00 00 00
       0.0 0.0 0.0 0.0
0000b0 00 00 00 00 00 00 00 00 00 00 00 00 00 00 00 00
       0.0 0.0 0.0 0.0
0000c0 00 00 00 00 00 00 00 00 00 00 00 00 00 00 00 00
       0.0 0.0 0.0 0.0
0000d0 00 00 00 00 00 00 00 00 00 00 00 00 00 00 00 00
       0.0 0.0 0.0 0.0
0000e0 00 00 00 00 00 00 00 00 00 00 00 00 00 00 00 00
       0.0 0.0 0.0 0.0
0000f0 00 00 00 00 00 00 00 00 00 00 00 00 00 00 00 00
       0.0 0.0 0.0 0.0
000100 00 00 00 00 00 00 00 00 00 00 00 00 00 00 00 00
       0.0 0.0 0.0 0.0
000110 00 00 00 00 00 00 00 00 00 00 00 00 00 00 00 00
       0.0 0.0 0.0 0.0
000120 00 00 00 00 00 00 00 00 00 00 00 00 00 00 00 00
       0.0 0.0 0.0 0.0
000130 00 00 00 00 00 00 00 00 00 00 00 00 00 00 00 00
       0.0 0.0 0.0 0.0
000140 00 00 00 00 00 00 00 00 00 00 00 00 00 00 00 00
       0.0 0.0 0.0 0.0
000150 00 00 00 00 00 00 00 00 00 00 00 00 00 00 00 00
       0.0 0.0 0.0 0.0
000160 00 00 00 00 00 00 00 00 00 00 00 00 00 00 00 00
       0.0 0.0 0.0 0.0
000170 00 00 00 00 00 00 00 00 00 00 00 00 00 00 00 00
       0.0 0.0 0.0 0.0
000180 00 00 00 00 00 00 00 00 00 00 00 00 00 00 00 00
       0.0 0.0 0.0 0.0
000190 00 00 00 00 00 00 00 00 00 00 00 00 00 00 00 00
       0.0 0.0 0.0 0.0
0001a0 00 00 00 00 00 00 00 00 00 00 00 00 00 00 00 00
       0.0 0.0 0.0 0.0
0001b0 00 00 00 00 00 00 00 00 00 00 00 00 00 00 00 00
       0.0 0.0 0.0 0.0
0001c0 00 00 00 00 00 00 00 00 00 00 00 00 00 00 00 00
       0.0 0.0 0.0 0.0
0001d0 00 00 00 00 00 00 00 00 00 00 00 00 00 00 00 00
       0.0 0.0 0.0 0.0
0001e0 00 00 00 00 00 00 00 00 00 00 00 00 00 00 00 00
       0.0 0.0 0.0 0.0
0001f0 00 00 00 00 00 00 00 00 00 00 00 00 00 00 00 00
       0.0 0.0 0.0 0.0
000200 00 b3 5e 3f fe 33 05 3e 00 00 00 00 00 00 00 00
       0.8699188 0.13008115 0.0 0.0
000210 00 00 00 00 00 00 00 00 00 00 00 00 00 00 00 00
       0.0 0.0 0.0 0.0
000220 00 00 00 00 00 00 00 00 00 00 00 00 00 00 00 00
       0.0 0.0 0.0 0.0
000230 00 00 00 00 00 00 00 00 00 00 00 00 00 00 00 00
       0.0 0.0 0.0 0.0
000240 00 00 00 00 00 00 00 00 00 00 00 00 00 00 00 00
       0.0 0.0 0.0 0.0
000250 00 00 00 00 00 00 00 00 00 00 00 00 00 00 00 00
       0.0 0.0 0.0 0.0
000260 00 00 00 00 00 00 00 00 00 00 00 00 00 00 00 00
       0.0 0.0 0.0 0.0
000270 00 00 00 00 00 00 00 00 00 00 00 00 00 00 00 00
       0.0 0.0 0.0 0.0
000280 00 00 00 00 00 00 00 00 00 00 00 00 00 00 00 00
       0.0 0.0 0.0 0.0
000290 00 00 00 00 00 00 00 00 00 00 00 00 00 00 00 00
       0.0 0.0 0.0 0.0
0002a0 00 00 00 00 00 00 00 00 00 00 00 00 00 00 00 00
       0.0 0.0 0.0 0.0
0002b0 00 00 00 00 00 00 00 00 00 00 00 00 00 00 00 00
       0.0 0.0 0.0 0.0
0002c0 00 00 00 00 00 00 00 00 00 00 00 00 00 00 00 00
       0.0 0.0 0.0 0.0
0002d0 00 00 00 00 00 00 00 00 00 00 00 00 00 00 00 00
       0.0 0.0 0.0 0.0
0002e0 00 00 00 00 00 00 00 00 00 00 00 00 00 00 00 00
       0.0 0.0 0.0 0.0
0002f0 00 00 00 00 00 00 00 00 00 00 00 00 00 00 00 00
       0.0 0.0 0.0 0.0
000300 00 00 00 00 00 00 00 00 00 00 00 00 00 00 00 00
       0.0 0.0 0.0 0.0
000310 00 00 00 00 00 00 00 00 00 00 00 00 00 00 00 00
       0.0 0.0 0.0 0.0
000320 00 00 00 00 00 00 00 00 00 00 00 00 00 00 00 00
       0.0 0.0 0.0 0.0
000330 00 00 00 00 00 00 00 00 00 00 00 00 00 00 00 00
       0.0 0.0 0.0 0.0
000340 00 00 00 00 00 00 00 00 00 00 00 00 00 00 00 00
       0.0 0.0 0.0 0.0
000350 00 00 00 00 00 00 00 00 00 00 00 00 00 00 00 00
       0.0 0.0 0.0 0.0
000360 00 00 00 00 00 00 00 00 00 00 00 00 00 00 00 00
       0.0 0.0 0.0 0.0
000370 00 00 00 00 00 00 00 00 00 00 00 00 00 00 00 00
       0.0 0.0 0.0 0.0
000380 00 00 00 00 00 00 00 00 00 00 00 00 00 00 00 00
       0.0 0.0 0.0 0.0
000390 00 00 00 00 00 00 00 00 00 00 00 00 00 00 00 00
       0.0 0.0 0.0 0.0
0003a0 00 00 00 00 00 00 00 00 00 00 00 00 00 00 00 00
       0.0 0.0 0.0 0.0
0003b0 00 00 00 00 00 00 00 00 00 00 00 00 00 00 00 00
       0.0 0.0 0.0 0.0
0003c0 00 00 00 00 00 00 00 00 00 00 00 00 00 00 00 00
       0.0 0.0 0.0 0.0
0003d0 00 00 00 00 00 00 00 00 00 00 00 00 00 00 00 00
       0.0 0.0 0.0 0.0
0003e0 00 00 00 00 00 00 00 00 00 00 00 00 00 00 00 00
       0.0 0.0 0.0 0.0
0003f0 00 00 00 00 00 00 00 00 00 00 00 00 00 00 00 00
       0.0 0.0 0.0 0.0

unstack f4 [192]
000000 d2 f0 67 3c 4f 7e eb bc 3a e4 1a 3e db 79 93 3d
       0.014156537 -0.028746752 0.15126124 0.072009765
000010 ac 9a 82 3b f1 18 e1 3d ff ab 3b 3d 9c 26 9e 3d
       0.0039857235 0.10991085 0.045818325 0.07722208
000020 65 98 7c bd 74 3a 08 3e 10 70 77 3c 62 5a 85 3d
       -0.061668772 0.13303548 0.015102401 0.0651138
000030 ef a8 00 3d e0 e5 0d bb 79 7f 82 3d 02 82 8c 3d
       0.031411108 -0.0021651909 0.0637197 0.068607345
000040 d4 f1 b4 3d 44 5d 7c 3d d7 01 4c 3d 39 df 34 3d
       0.088351876 0.061612383 0.049806442 0.044158194
000050 b9 2e 8c 3d a1 bd ee 3d ce 92 92 3d cd 29 81 3d
       0.06844849 0.116572626 0.07156907 0.06306801
000060 74 e1 b4 3d 19 df 5d 3c 93 10 9a bb f9 1a 88 3d
       0.08832064 0.01354196 -0.004701683 0.066457696
000070 18 62 84 3c 6e d4 63 bc a3 99 0e 3d 64 1b 9b 3d
       0.016160056 -0.013905628 0.03481449 0.07573584
000080 e4 9e de 3c 31 bf 04 3e 02 21 17 3e 0c 75 19 3e
       0.027175374 0.12963559 0.14758685 0.14986056
000090 f8 9d 36 3d cc 83 08 3d 81 56 7a 3d 50 db 7b 3d
       0.044584244 0.033328816 0.061117653 0.06148845
0000a0 33 9f 0d 3e f2 07 a4 3c 72 b7 12 3d 78 bd 83 3c
       0.13830261 0.02002332 0.03581948 0.016081557
0000b0 04 d6 17 3d dc ef b6 bc d8 4e c5 3d 70 36 00 bd
       0.037069336 -0.02233117 0.09634179 -0.031301916
0000c0 e7 8e 81 3a 73 83 aa 3d 3c db 65 3d 10 af 08 bc
       0.0009884507 0.08325853 0.05611728 -0.008342519
0000d0 70 0f 4a 3d 56 9a 18 3d 3a 23 8d 3c a8 84 fd b8
       0.04933113 0.03725656 0.017228711 -0.00012088689
0000e0 29 3b 87 3c 46 4c 85 bc 62 b9 bc 3d b7 fd 03 3e
       0.016507702 -0.016271722 0.092150465 0.12889753
0000f0 fe 7d 09 3d ae 05 37 3e 74 d5 76 3d be ba ed 3c
       0.03356742 0.1787326 0.06026216 0.02901971
000100 2b c9 34 3d 4c 5d 21 3d f5 9e 6f 3d c0 4c d1 3c
       0.04413716 0.039395615 0.058501203 0.025549293
000110 ad 06 8b 3d 83 94 70 3d 06 82 b4 3d 4f b2 3b 3d
       0.06788383 0.05873538 0.088138625 0.045824345
000120 0c e0 1a 3d e9 90 b9 3d 8f d2 ee 3c c7 97 22 3d
       0.037811324 0.090608425 0.029153137 0.039695527
000130 b9 35 4f 3c 30 8f 2e 3d 1a 17 95 3d f8 6c 98 3d
       0.012647086 0.042617023 0.07279797 0.07442659
000140 05 3b a3 3d 70 e6 80 3d f2 26 79 3d c7 9e ba 3d
       0.079702415 0.062939525 0.060828157 0.091123156
000150 53 d5 42 3d 10 3a f2 3d ba 34 9d 3d 3d 2c 76 3d
       0.047566723 0.11827481 0.076760724 0.060100783
000160 7f 4f 56 3d bf 7e 62 3d 1b ed 64 3d 14 e8 49 3d
       0.052321907 0.055296656 0.055890184 0.049293593
000170 91 4d 03 3d 1d c8 54 3d 43 c9 9f 3d 8e 8a 12 3d
       0.032056395 0.051948655 0.078020595 0.035776667
000180 17 97 63 3d 0f 22 b4 3c 71 3d 55 3d 0f 7d 93 3c
       0.055564012 0.021988897 0.05206055 0.018003969
000190 ed 05 9a 3d 88 4c 06 3d dd 2b 3f 3d 6b 08 96 3d
       0.075206615 0.03278783 0.04667269 0.07325824
0001a0 06 e8 fb 3d ba c1 21 3d 1b 5f 92 3d 4b f3 41 3d
       0.12300114 0.039491393 0.07147046 0.047351163
0001b0 8b 26 8e 3d 1f ed f8 3b 94 c0 92 3d 28 ca 8d 3d
       0.06940945 0.0075966264 0.071656376 0.06923324
0001c0 5e 23 89 3c 46 95 21 3e 7c 7e c0 3c 9d c2 96 3c
       0.016740497 0.157796 0.023497812 0.018403346
0001d0 73 dd 06 3d af 60 da 3c 92 c5 00 3e a8 fb 16 3d
       0.032926034 0.02665743 0.12575367 0.03686109
0001e0 1e 4a 57 3d a3 57 11 3d 02 22 82 3d 62 3a 12 3d
       0.052560918 0.035483968 0.06354143 0.03570021
0001f0 10 7d 00 3d 03 d9 f2 3d 26 c3 60 3d 46 b3 c3 3c
       0.03136927 0.11857798 0.054873608 0.023889195
000200 a6 6b e6 bc a6 94 a4 bb 25 32 75 3c 6d d3 eb 3c
       -0.028127503 -0.005022603 0.014965569 0.02878734
000210 2d cc 81 3c 8d c9 9d bc ed d2 bc bc 2c 35 47 3c
       0.015844429 -0.019261146 -0.023049796 0.012158673
000220 9c 8a 65 bc a1 05 25 3d 21 54 0a bd 4d 9a 97 bc
       -0.014010098 0.04028857 -0.033771638 -0.018506194
000230 59 4e 11 bd e2 f4 40 3c 80 f6 33 bb 32 f9 92 bc
       -0.03547511 0.011777135 -0.0027460158 -0.017941091
000240 34 cd 5d bc 15 82 1b bd 5f 49 c6 bc f9 08 8b 3b
       -0.013537694 -0.037965853 -0.024204908 0.004243013
000250 a7 05 8b bc 92 86 72 3c 2a cf 52 3b 33 ab 3d bc
       -0.016970469 0.014802592 0.0032166936 -0.011576462
000260 6e 2c 44 3b 56 17 ba 3b 2e 54 0c 3c 1e 66 d7 3b
       0.0029933709 0.0056790514 0.008564992 0.0065734526
000270 db 28 02 bc a8 bf 0b bd 0e 9f 2a bc e9 b8 08 bd
       -0.007944311 -0.034118325 -0.010413898 -0.03337947
000280 e5 3a 4b 3c e9 8f 17 bc d2 87 88 3b 52 85 bd 3c
       0.012404178 -0.009250619 0.0041665817 0.023134861
000290 bf 76 3f 3b 2a e6 dd bc 34 19 cb 3c 22 00 42 3b
       0.0029215065 -0.02708729 0.024792291 0.002960213
0002a0 bb 83 ae bb a0 70 51 bd c8 6f e0 3c dc 56 81 3a
       -0.005325762 -0.0511328 0.027397051 0.0009867805
0002b0 f5 e3 9a bc 67 df 2e bd ce 07 18 bd 5c 39 be 3c
       -0.018907527 -0.04269352 -0.037116818 0.02322071
0002c0 1c 99 32 3b d0 28 25 3d 9d 4a 0f bc 22 db f4 3b
       0.0027251905 0.040322125 -0.008745817 0.0074724117
0002d0 55 34 2d 3d c6 db 00 3b b3 b2 1e bd 1a ab 15 bd
       0.042286236 0.0019662245 -0.03874464 -0.03654013
0002e0 f2 72 4b 3d a2 12 a5 3b c3 fd 19 bc 58 82 16 3d
       0.049670167 0.0050376216 -0.00939888 0.0367454
0002f0 c4 57 3d ba d7 c9 31 3a 82 9e b0 ba 8f 47 89 bb
       -0.0007222856 0.00067820906 -0.0013474973 -0.0041894387

unstack1 f4 [192]
000000 d2 f0 67 3c 4f 7e eb bc 3a e4 1a 3e db 79 93 3d
       0.014156537 -0.028746752 0.15126124 0.072009765
000010 ac 9a 82 3b f1 18 e1 3d ff ab 3b 3d 9c 26 9e 3d
       0.0039857235 0.10991085 0.045818325 0.07722208
000020 65 98 7c bd 74 3a 08 3e 10 70 77 3c 62 5a 85 3d
       -0.061668772 0.13303548 0.015102401 0.0651138
000030 ef a8 00 3d e0 e5 0d bb 79 7f 82 3d 02 82 8c 3d
       0.031411108 -0.0021651909 0.0637197 0.068607345
000040 d4 f1 b4 3d 44 5d 7c 3d d7 01 4c 3d 39 df 34 3d
       0.088351876 0.061612383 0.049806442 0.044158194
000050 b9 2e 8c 3d a1 bd ee 3d ce 92 92 3d cd 29 81 3d
       0.06844849 0.116572626 0.07156907 0.06306801
000060 74 e1 b4 3d 19 df 5d 3c 93 10 9a bb f9 1a 88 3d
       0.08832064 0.01354196 -0.004701683 0.066457696
000070 18 62 84 3c 6e d4 63 bc a3 99 0e 3d 64 1b 9b 3d
       0.016160056 -0.013905628 0.03481449 0.07573584
000080 e4 9e de 3c 31 bf 04 3e 02 21 17 3e 0c 75 19 3e
       0.027175374 0.12963559 0.14758685 0.14986056
000090 f8 9d 36 3d cc 83 08 3d 81 56 7a 3d 50 db 7b 3d
       0.044584244 0.033328816 0.061117653 0.06148845
0000a0 33 9f 0d 3e f2 07 a4 3c 72 b7 12 3d 78 bd 83 3c
       0.13830261 0.02002332 0.03581948 0.016081557
0000b0 04 d6 17 3d dc ef b6 bc d8 4e c5 3d 70 36 00 bd
       0.037069336 -0.02233117 0.09634179 -0.031301916
0000c0 e7 8e 81 3a 73 83 aa 3d 3c db 65 3d 10 af 08 bc
       0.0009884507 0.08325853 0.05611728 -0.008342519
0000d0 70 0f 4a 3d 56 9a 18 3d 3a 23 8d 3c a8 84 fd b8
       0.04933113 0.03725656 0.017228711 -0.00012088689
0000e0 29 3b 87 3c 46 4c 85 bc 62 b9 bc 3d b7 fd 03 3e
       0.016507702 -0.016271722 0.092150465 0.12889753
0000f0 fe 7d 09 3d ae 05 37 3e 74 d5 76 3d be ba ed 3c
       0.03356742 0.1787326 0.06026216 0.02901971
000100 2b c9 34 3d 4c 5d 21 3d f5 9e 6f 3d c0 4c d1 3c
       0.04413716 0.039395615 0.058501203 0.025549293
000110 ad 06 8b 3d 83 94 70 3d 06 82 b4 3d 4f b2 3b 3d
       0.06788383 0.05873538 0.088138625 0.045824345
000120 0c e0 1a 3d e9 90 b9 3d 8f d2 ee 3c c7 97 22 3d
       0.037811324 0.090608425 0.029153137 0.039695527
000130 b9 35 4f 3c 30 8f 2e 3d 1a 17 95 3d f8 6c 98 3d
       0.012647086 0.042617023 0.07279797 0.07442659
000140 05 3b a3 3d 70 e6 80 3d f2 26 79 3d c7 9e ba 3d
       0.079702415 0.062939525 0.060828157 0.091123156
000150 53 d5 42 3d 10 3a f2 3d ba 34 9d 3d 3d 2c 76 3d
       0.047566723 0.11827481 0.076760724 0.060100783
000160 7f 4f 56 3d bf 7e 62 3d 1b ed 64 3d 14 e8 49 3d
       0.052321907 0.055296656 0.055890184 0.049293593
000170 91 4d 03 3d 1d c8 54 3d 43 c9 9f 3d 8e 8a 12 3d
       0.032056395 0.051948655 0.078020595 0.035776667
000180 17 97 63 3d 0f 22 b4 3c 71 3d 55 3d 0f 7d 93 3c
       0.055564012 0.021988897 0.05206055 0.018003969
000190 ed 05 9a 3d 88 4c 06 3d dd 2b 3f 3d 6b 08 96 3d
       0.075206615 0.03278783 0.04667269 0.07325824
0001a0 06 e8 fb 3d ba c1 21 3d 1b 5f 92 3d 4b f3 41 3d
       0.12300114 0.039491393 0.07147046 0.047351163
0001b0 8b 26 8e 3d 1f ed f8 3b 94 c0 92 3d 28 ca 8d 3d
       0.06940945 0.0075966264 0.071656376 0.06923324
0001c0 5e 23 89 3c 46 95 21 3e 7c 7e c0 3c 9d c2 96 3c
       0.016740497 0.157796 0.023497812 0.018403346
0001d0 73 dd 06 3d af 60 da 3c 92 c5 00 3e a8 fb 16 3d
       0.032926034 0.02665743 0.12575367 0.03686109
0001e0 1e 4a 57 3d a3 57 11 3d 02 22 82 3d 62 3a 12 3d
       0.052560918 0.035483968 0.06354143 0.03570021
0001f0 10 7d 00 3d 03 d9 f2 3d 26 c3 60 3d 46 b3 c3 3c
       0.03136927 0.11857798 0.054873608 0.023889195
000200 8d 59 8c bc b1 e3 8c 3b 76 69 92 3b d7 47 0c 3d
       -0.017132545 0.004299604 0.0044681383 0.0342482
000210 f1 c4 78 bc 52 60 0a bb 1b cf 1e bd 26 46 a4 bb
       -0.015183673 -0.002111454 -0.03877173 -0.005013245
000220 0b a8 06 bc 96 ef df 3c 0f df 19 bd 76 98 de bc
       -0.0082187755 0.027335923 -0.03756624 -0.027172308
000230 a6 c9 7a bd 6f 31 20 ba 98 00 ac 3a 75 44 5b bc
       -0.061227463 -0.0006110882 0.0013122736 -0.013383021
000240 94 56 ad bc 73 8a 0e bd e7 05 6b bc f1 07 8f 3c
       -0.021159448 -0.034800004 -0.014344669 0.017459841
000250 15 17 b2 ba b8 4f bc 3c b5 64 c3 ba 35 0e 26 bb
       -0.0013587201 0.022987232 -0.0014907332 -0.0025338058
000260 aa d8 35 3b 5a 36 1b 3c 59 b2 31 3b fb 33 4a 3c
       0.002774755 0.009473408 0.002711436 0.012341495
000270 14 8c bd bc 69 4a 27 bd 7b b4 cf bc 3e 19 99 bc
       -0.023138084 -0.040842447 -0.025354614 -0.018688794
000280 44 ab 72 3c 47 cd ce bc c4 5f 94 bb 61 95 39 3c
       0.014811341 -0.025244368 -0.0045280177 0.011327119
000290 a0 d9 5e 3b 74 43 93 bb d3 86 51 3c 5d bf 92 bb
       0.0034004226 -0.004494125 0.012788492 -0.0044783787
0002a0 db 60 75 38 cf 90 3f bd 17 36 3f 3d 59 62 a3 3b
       5.8502756e-05 -0.04676896 0.046682443 0.004986089
0002b0 60 5b c2 b9 d6 6c 42 bd fe 8a 09 bd 55 28 f1 3c
       -0.00037070643 -0.047467075 -0.03357982 0.029438177
0002c0 85 0c df b9 32 06 45 3d 2c 9f 97 bc 6e f1 0d 3c
       -0.00042543202 0.04810161 -0.018508516 0.008663518
0002d0 29 5b 78 3c 7b 68 31 bc 06 81 70 bd 49 b1 d5 bc
       0.015158453 -0.010828133 -0.058716796 -0.026085513
0002e0 45 20 0f 3d 9f 88 a0 bc 8d 87 cb 38 ac 17 ea 3c
       0.034942884 -0.019596396 9.7050426e-05 0.02857574
0002f0 83 c2 27 bc e5 11 63 bb 47 b1 a7 3b 7e b4 fb 3b
       -0.010239246 -0.0034648117 0.0051175687 0.0076814285

unstack2 f4 [192]
000000 65 c7 4f 3d b5 81 29 3d 9f 49 ce 3c b6 88 5a 3d
       0.050727267 0.041383464 0.02518159 0.053353034
000010 aa 09 8d bb a7 42 d3 3c 9e 5f 16 bd 70 ee 89 3d
       -0.0043041306 0.025788618 -0.03671228 0.067349315
000020 db a1 2e 3e f8 65 0e 3d 6b e1 09 3e b1 a6 be 3d
       0.1705393 0.034765214 0.13464896 0.093091376
000030 c2 a5 e9 3d 2a 29 73 3d d2 7e 55 3d f4 b2 eb bc
       0.11408569 0.05936543 0.0521229 -0.028771855
000040 d0 cf f3 3d ff 13 3b 3e 17 2d 9b 3d 77 ef 32 3d
       0.119048715 0.18269347 0.075769596 0.043685403
000050 90 9c d5 3d 4c b6 f6 3d 51 b5 83 3d 9a 1b ac 3a
       0.104302526 0.12046489 0.06431068 0.0013130785
000060 01 02 a3 3d bb a2 0b 3d e4 29 70 3c a8 37 41 3d
       0.079593666 0.03409074 0.014658425 0.04717222
000070 be 7f 7b 3d 13 43 af 3d 18 14 26 3d 6c d5 23 bc
       0.06140112 0.08557715 0.040546507 -0.009999614
000080 6a ee be 3c f8 fe 92 3d b0 99 cf 3c 0b 6e 4c 3d
       0.023307044 0.07177538 0.025341839 0.049909633
000090 39 f1 82 3d 67 65 b0 bc 86 46 07 3e d0 5d 6e 3c
       0.06393666 -0.021532727 0.13210496 0.014548734
0000a0 ce f0 41 bb c3 1b 8b 3c 9a 16 33 3d 98 04 0f 3d
       -0.0029592994 0.016981011 0.043722726 0.03491649
0000b0 24 2e b8 3d 23 9f c0 3c c0 99 19 3d 2c b5 09 3e
       0.089931756 0.023513382 0.037500143 0.13448018
0000c0 ae 91 a5 b9 00 73 91 3d ee d4 2f 3d c0 28 75 3d
       -0.00031579792 0.07102013 0.042927675 0.059853315
0000d0 f3 0b c5 3d fe 15 a1 3d c9 17 f7 3c 13 b3 66 3d
       0.0962142 0.07865523 0.030162709 0.056323122
0000e0 25 da 69 3c 0f d2 0e 3e 05 fd 0b 3d 50 a0 19 3e
       0.014273201 0.13947318 0.034176845 0.1500256
0000f0 28 a1 1c 3d a6 55 fa 3d 06 cc b4 3a de 8d c1 3d
       0.038239628 0.122233674 0.0013793714 0.09450887
000100 7d f9 0a 3e 6c 28 b1 3d 9a 36 17 bc de fe 08 3d
       0.13571735 0.08650288 -0.009229327 0.033446185
000110 0a 5d 91 3d 71 c9 4c 3d 69 cc 83 3d b5 19 78 3d
       0.07097824 0.049996797 0.064354725 0.06057139
000120 a0 ac 95 3d db 59 06 3d 8e d6 80 3d c3 a1 db 3c
       0.07308316 0.032800537 0.06290923 0.026810532
000130 1b 54 a5 3d 92 4c 94 3d dd 8a 15 3d 67 6f 91 3d
       0.080726825 0.07241167 0.036509383 0.071013264
000140 14 69 b4 3d 97 89 ff 3d 75 d0 65 3d e5 fb 6a 3d
       0.088091046 0.12477415 0.056107003 0.05736913
000150 b1 ae 6a 3d c3 bc a5 3d 27 aa e4 3c 25 0d 44 3d
       0.057295505 0.08092644 0.027913166 0.047864098
000160 a3 1c 85 3d 82 09 02 3d ae 62 3b 3d 5b 8c d6 3c
       0.06499603 0.03174735 0.045748405 0.026189974
000170 7d 27 85 3d 41 e2 8e 3c 8b 59 39 3c c3 6e 9f 3d
       0.065016724 0.01744187 0.011312853 0.07784798
000180 32 eb 49 3d 68 cf dc 3d 16 f9 58 3d 6b 06 35 3d
       0.049296565 0.10781747 0.05297192 0.044195574
000190 92 0d f7 3c 55 fc 95 3d 09 89 b0 3d 5d 8f 3f 3d
       0.030157838 0.07323519 0.086198874 0.04676758
0001a0 64 3c ab 3d 68 4a 88 3d 3c bc 7c 3d 38 44 a1 3d
       0.08361128 0.06654817 0.06170295 0.0787434
0001b0 4a 28 99 3d a6 80 6a 3d 70 f8 98 3d cd b9 00 3e
       0.07478388 0.057251595 0.07469261 0.12570877
0001c0 f1 8c 32 3d 61 93 6a 3d 73 c7 71 3d c2 46 90 3d
       0.043591443 0.057269458 0.0590281 0.07044746
0001d0 37 f0 f6 3c 23 f7 3c 3d e9 8f 49 3d 3b 29 b1 3d
       0.03014384 0.046134125 0.04920951 0.08650442
0001e0 f3 4e 78 bc 98 d1 d8 3d 0e 0c 85 3c 50 35 a8 3d
       -0.015155542 0.10586852 0.0162411 0.082132936
0001f0 34 81 73 3d ec 69 49 3d 75 40 8b 3d e2 82 b3 3d
       0.05944939 0.04917328 0.067994036 0.08765198
000200 97 6c 1c be 9e 49 47 bd 01 60 5e bd ec 16 af 3c
       -0.15275799 -0.04865419 -0.054290775 0.021373235
000210 53 e7 07 bd 0c 73 e0 3c 5d 47 bb 3d 8a 44 63 3b
       -0.033179592 0.027398609 0.09144471 0.0034678304
000220 27 c6 3a bd d4 e2 47 3d 73 42 0a bd 4c 47 0c 3d
       -0.04559913 0.048800305 -0.033754777 0.03424768
000230 fe 5f 1c bd 66 ce 38 bb 06 87 bd 3c 2a 97 94 bd
       -0.038177483 -0.0028199195 0.023135673 -0.07255395
000240 cc f6 81 3d 6d f5 62 3c c7 b6 1e 3d 3a ea 23 bc
       0.06345901 0.013852459 0.03874853 -0.010004574
000250 20 db bf 3a 71 47 15 bc b1 b8 37 bd 0f c2 e8 3c
       0.0014637448 -0.009111271 -0.04485387 0.028412847
000260 d6 50 b0 3b 58 e7 13 bd dd 9d f5 bc 51 51 97 bd
       0.00538073 -0.0361093 -0.029982502 -0.07388557
000270 78 5c 3f 3c e8 e3 4a bb 97 e7 fa bc 65 b7 f4 3c
       0.011679761 -0.0030958597 -0.030628009 0.029872606
000280 f0 80 5f ba a5 3d 1d 3d 33 6c c6 bd 51 fd 9b 3c
       -0.0008525988 0.038388867 -0.09688606 0.01904169
000290 7e 96 e7 3b 43 d5 b9 3c ec 09 03 3d b9 ed 49 3c
       0.0070675006 0.022684699 0.031991884 0.012324744
0002a0 c7 4f 8b 3d 88 6b 2e 3d 37 27 9a 3c 1e 06 86 bd
       0.06802326 0.04258302 0.018817527 -0.065441355
0002b0 c5 8e 13 3d 72 11 aa 3d ba 2e d1 bc ac 17 a5 bd
       0.036024828 0.08304109 -0.025534976 -0.08061156
0002c0 75 ff e8 3a e7 a9 9b 3b 80 a6 00 36 4a a4 32 3d
       0.0017776327 0.0047504785 1.9170402e-06 0.04361371
0002d0 3f be 29 3c 67 23 12 3b a1 b2 58 3c d1 5e d8 3c
       0.0103603 0.0022298933 0.013226182 0.0264124
0002e0 41 d6 11 bd 04 a1 fd bc 00 a4 09 bb e7 c4 1e bd
       -0.03560472 -0.030960567 -0.0021002293 -0.038762
0002f0 7e a1 ca 3c 0e 47 03 bc e3 af 5e 3d d2 3c 48 3c
       0.024735209 -0.008012546 0.054366957 0.012221532

unstack3 f4 [192]
000000 65 c7 4f 3d b5 81 29 3d 9f 49 ce 3c b6 88 5a 3d
       0.050727267 0.041383464 0.02518159 0.053353034
000010 aa 09 8d bb a7 42 d3 3c 9e 5f 16 bd 70 ee 89 3d
       -0.0043041306 0.025788618 -0.03671228 0.067349315
000020 db a1 2e 3e f8 65 0e 3d 6b e1 09 3e b1 a6 be 3d
       0.1705393 0.034765214 0.13464896 0.093091376
000030 c2 a5 e9 3d 2a 29 73 3d d2 7e 55 3d f4 b2 eb bc
       0.11408569 0.05936543 0.0521229 -0.028771855
000040 d0 cf f3 3d ff 13 3b 3e 17 2d 9b 3d 77 ef 32 3d
       0.119048715 0.18269347 0.075769596 0.043685403
000050 90 9c d5 3d 4c b6 f6 3d 51 b5 83 3d 9a 1b ac 3a
       0.104302526 0.12046489 0.06431068 0.0013130785
000060 01 02 a3 3d bb a2 0b 3d e4 29 70 3c a8 37 41 3d
       0.079593666 0.03409074 0.014658425 0.04717222
000070 be 7f 7b 3d 13 43 af 3d 18 14 26 3d 6c d5 23 bc
       0.06140112 0.08557715 0.040546507 -0.009999614
000080 6a ee be 3c f8 fe 92 3d b0 99 cf 3c 0b 6e 4c 3d
       0.023307044 0.07177538 0.025341839 0.049909633
000090 39 f1 82 3d 67 65 b0 bc 86 46 07 3e d0 5d 6e 3c
       0.06393666 -0.021532727 0.13210496 0.014548734
0000a0 ce f0 41 bb c3 1b 8b 3c 9a 16 33 3d 98 04 0f 3d
       -0.0029592994 0.016981011 0.043722726 0.03491649
0000b0 24 2e b8 3d 23 9f c0 3c c0 99 19 3d 2c b5 09 3e
       0.089931756 0.023513382 0.037500143 0.13448018
0000c0 ae 91 a5 b9 00 73 91 3d ee d4 2f 3d c0 28 75 3d
       -0.00031579792 0.07102013 0.042927675 0.059853315
0000d0 f3 0b c5 3d fe 15 a1 3d c9 17 f7 3c 13 b3 66 3d
       0.0962142 0.07865523 0.030162709 0.056323122
0000e0 25 da 69 3c 0f d2 0e 3e 05 fd 0b 3d 50 a0 19 3e
       0.014273201 0.13947318 0.034176845 0.1500256
0000f0 28 a1 1c 3d a6 55 fa 3d 06 cc b4 3a de 8d c1 3d
       0.038239628 0.122233674 0.0013793714 0.09450887
000100 7d f9 0a 3e 6c 28 b1 3d 9a 36 17 bc de fe 08 3d
       0.13571735 0.08650288 -0.009229327 0.033446185
000110 0a 5d 91 3d 71 c9 4c 3d 69 cc 83 3d b5 19 78 3d
       0.07097824 0.049996797 0.064354725 0.06057139
000120 a0 ac 95 3d db 59 06 3d 8e d6 80 3d c3 a1 db 3c
       0.07308316 0.032800537 0.06290923 0.026810532
000130 1b 54 a5 3d 92 4c 94 3d dd 8a 15 3d 67 6f 91 3d
       0.080726825 0.07241167 0.036509383 0.071013264
000140 14 69 b4 3d 97 89 ff 3d 75 d0 65 3d e5 fb 6a 3d
       0.088091046 0.12477415 0.056107003 0.05736913
000150 b1 ae 6a 3d c3 bc a5 3d 27 aa e4 3c 25 0d 44 3d
       0.057295505 0.08092644 0.027913166 0.047864098
000160 a3 1c 85 3d 82 09 02 3d ae 62 3b 3d 5b 8c d6 3c
       0.06499603 0.03174735 0.045748405 0.026189974
000170 7d 27 85 3d 41 e2 8e 3c 8b 59 39 3c c3 6e 9f 3d
       0.065016724 0.01744187 0.011312853 0.07784798
000180 32 eb 49 3d 68 cf dc 3d 16 f9 58 3d 6b 06 35 3d
       0.049296565 0.10781747 0.05297192 0.044195574
000190 92 0d f7 3c 55 fc 95 3d 09 89 b0 3d 5d 8f 3f 3d
       0.030157838 0.07323519 0.086198874 0.04676758
0001a0 64 3c ab 3d 68 4a 88 3d 3c bc 7c 3d 38 44 a1 3d
       0.08361128 0.06654817 0.06170295 0.0787434
0001b0 4a 28 99 3d a6 80 6a 3d 70 f8 98 3d cd b9 00 3e
       0.07478388 0.057251595 0.07469261 0.12570877
0001c0 f1 8c 32 3d 61 93 6a 3d 73 c7 71 3d c2 46 90 3d
       0.043591443 0.057269458 0.0590281 0.07044746
0001d0 37 f0 f6 3c 23 f7 3c 3d e9 8f 49 3d 3b 29 b1 3d
       0.03014384 0.046134125 0.04920951 0.08650442
0001e0 f3 4e 78 bc 98 d1 d8 3d 0e 0c 85 3c 50 35 a8 3d
       -0.015155542 0.10586852 0.0162411 0.082132936
0001f0 34 81 73 3d ec 69 49 3d 75 40 8b 3d e2 82 b3 3d
       0.05944939 0.04917328 0.067994036 0.08765198
000200 02 bc 1d be a9 7d 18 bd d5 c3 a9 bd 8b c4 0c 3d
       -0.1540375 -0.037229214 -0.08289305 0.034367125
000210 e0 a6 34 bd 5a 4a 12 3d 95 41 dd 3d 9a 23 b7 3b
       -0.044104457 0.03571544 0.108035244 0.005588961
000220 36 44 70 bd 4e 4e 3b 3d b2 1d a6 bc a4 a4 3d 3d
       -0.0586588 0.045728974 -0.020277832 0.04629959
000230 5d 58 18 bd b5 ac e7 bb c0 aa 5e 3c 10 5f 96 bd
       -0.037193645 -0.007070149 0.013590515 -0.073423505
000240 45 e7 88 3d 71 0f 8f 3c da 1d 44 3d 68 c9 81 bc
       0.06684736 0.017463418 0.04788003 -0.015843108
000250 5c 55 84 3b 66 e6 bf bc cd 5a 7e bd 14 b6 fb 3c
       0.004038496 -0.023425292 -0.062098313 0.03072647
000260 05 41 52 3c fb 99 38 bd 77 fe a3 bc 51 1e bc bd
       0.012832885 -0.045068722 -0.0200188 -0.0918547
000270 b4 08 f3 bb fe 5b dc ba 6b f7 b8 bc 54 ff 97 3c
       -0.007416809 -0.0016812084 -0.022578916 0.018554367
000280 9c e3 a4 ba 5f c6 69 3d 45 09 d0 bd b8 a5 a8 3c
       -0.001258004 0.057073947 -0.10158018 0.020586833
000290 1d 34 f4 bb 9d b6 54 3c 83 87 4f 3d 9d 07 cd 3c
       -0.0074525014 0.0129829915 0.050666343 0.025028044
0002a0 97 64 80 3d b4 0c 86 3d 46 97 48 3c be 50 85 bd
       0.06269186 0.06545392 0.012243098 -0.06509541
0002b0 71 e6 5d 3d 08 0c cc 3d 5f 3b fe bc 66 36 a7 bd
       0.054174844 0.09963232 -0.03103417 -0.081646726
0002c0 16 00 9e bb c3 c9 90 3c 87 28 37 3c 83 36 68 3d
       -0.0048217876 0.017674332 0.011179096 0.05669261
0002d0 20 cc 06 ba 24 25 52 bc b9 72 3c 3c d1 55 cd 3c
       -0.00051421113 -0.012826238 0.011501961 0.025065335
0002e0 b0 00 2f bd 0c 4e bc bc eb 57 a1 3c 50 9b 52 bd
       -0.042725265 -0.022986434 0.019695243 -0.05141765
0002f0 fd 98 14 3d ac 20 19 3b 2e 15 67 3d 65 03 01 3c
       0.036278713 0.0023365421 0.056416683 0.0078743445
