Android/Marusys/app/src/main/assets/trigger_word_detection_model_with_CNN.tflite (tflite, 249140 bytes, 16 tensors)

sequential_1/activation_3/Relu;sequential_1/conv2d_3/BiasAdd;sequential_1/conv2d_3/Conv2D;sequential_1/conv2d_3/BiasAdd/ReadVariableOp f4 [32, 3, 3, 1]
-0.14827742 -0.038969737 -0.10380405 0.12523375 0.15111016 -0.15057617 -0.044123836 -0.15437828
-0.04320565 -0.142039 -0.08132306 0.057024945 0.00035849618 -0.051032837 -0.035888024 0.10023806
-0.05031623 0.09990156 0.047923308 0.123231374 -0.045374043 0.011028341 -0.022290926 -0.24517435
-0.05273764 -0.13884775 0.08009528 -0.17281073 -0.13515143 -0.1811973 0.006722988 -0.019946877
0.15501106 -0.087070726 0.013091679 0.19393022 -0.10894149 -0.2221614 -0.12081246 0.020192176
0.059414588 -0.21563049 0.01429516 -0.0021980957 -0.004107326 -0.113116466 -0.09296907 -0.031158825
-0.21886736 -0.1978439 -0.14817967 -0.043114282 0.05905238 -0.1067037 -0.041813284 0.17793739
0.17605934 0.0021199116 0.12867698 0.014768634 -0.11572997 -0.05382385 0.09418098 -0.025901964
-0.13327205 -0.085627705 0.11852323 0.10840511 -0.14737973 -0.009878147 0.17750816 -0.08205434
-0.0035557423 0.14775762 0.15800169 -0.030753734 0.10251666 -0.13322271 0.032254674 -0.23185647
0.018363204 0.017251773 -0.15856728 -0.18972598 0.0021481104 0.15068103 0.16427787 -0.01062721
0.14335203 -0.07315918 -0.1129599 -0.15089227 -0.043260854 0.04840814 -0.045424808 -0.015381259
0.064905405 0.036268767 0.022133658 0.13771218 -0.16580342 0.13606203 0.19642136 -0.058586285
0.08663262 0.13314073 -0.16832267 -0.022908885 0.033998318 -0.2223844 -0.050092224 -0.13105476
-0.06440655 -0.12921864 -0.18550016 -0.057131298 0.13739818 0.07777022 -0.03212444 -0.2030502
0.01551752 -0.18024196 0.14497012 0.04544439 -0.02523287 0.018597145 0.12574586 0.087908186
0.073663615 -0.21434924 -0.09497032 -0.15699476 -0.051305417 -0.049897414 0.08886118 -0.13008943
0.14529014 0.055888303 -0.04374799 -0.078312464 0.04576056 -0.15842502 -0.21516351 0.037654594
-0.012583328 -0.14675464 -0.23986849 0.042091712 -0.055022012 0.015589517 0.03674302 0.12640223
-0.0017063548 0.13772598 0.14249879 0.12051442 0.1402933 -0.010868149 0.15243776 -0.021813883
0.14078844 -0.102583826 0.082131244 -0.09717693 -0.13088974 -0.07185769 0.14772242 -0.07876542
-0.14254147 0.1378153 -0.108524024 0.08506379 -0.16387688 0.15344329 0.11491841 0.014599401
-0.08122879 -0.024617182 0.0081431335 0.19842067 0.09032618 -0.0249772 0.15326062 0.0269484
0.16354118 0.13618636 -0.09040804 0.1840141 -0.115543544 -0.18341333 0.11042057 0.06878831
0.05800322 0.038905088 -0.09871886 0.13932307 0.0021227293 -0.15853138 0.022267785 0.041390892
-0.18567653 0.13388346 0.105229415 -0.2588113 -0.031817287 -0.1758184 0.069547765 -0.10535367
0.10129412 0.03780194 -0.11639441 -0.16105892 -0.17645743 -0.0931423 0.050765283 0.09096336
-0.09267543 0.1598906 -0.1177203 -0.06757519 0.091452226 -0.1771259 0.09868752 -0.20239714
0.025798108 0.078085065 0.1321848 0.1188327 0.039903894 -0.065729715 0.0069480715 -0.15623361
-0.2842687 -0.08730085 0.04613353 0.0451829 0.09875288 -0.0050548385 0.045818347 0.08448362
0.10765098 0.034229737 0.03289421 0.09511036 0.004413491 0.10819394 0.025343899 0.08240513
-0.26245046 0.066183634 0.07151133 -0.22512786 -0.08739758 -0.18246102 -0.12733255 0.0012487941
00000000: 09d6 17be bb9e 1fbd 3897 d4bd 473d 003e
00000010: 9fbc 1a3e a430 1abe 32bb 34bd 5715 1ebe
00000020: 68f8 30bd ac72 11be b48c a6bd fd92 693d
00000030: 8bf4 bb39 cf07 51bd 52ff 12bd 9d49 cd3d
00000040: 6418 4ebd 3099 cc3d 3b4b 443d bb60 fc3d
00000050: 22da 39bd 37b0 343c 769b b6bc fc0e 7bbe
00000060: 6c03 58bd 1b2e 0ebe ff08 a43d 4cf5 30be
00000070: 2365 0abe c98b 39be 834c dc3b a267 a3bc
00000080: 38bb 1e3e 2352 b2bd 7b7e 563c a595 463e
00000090: b71c dfbd 477e 63be 866c f7bd 106a a53c
000000a0: b65c 733d 3dce 5cbe 3f36 6a3c ed0d 10bb
000000b0: bf96 86bb 9ba9 e7bd 9166 bebd cb40 ffbc
000000c0: c41e 60be 9797 4abe 69bc 17be 9a98 30bd
000000d0: e9e0 713d 7887 dabd 6844 2bbd 3835 363e
000000e0: e648 343e 37ee 0a3b e6c3 033e 24f8 713c
000000f0: d603 edbd 6676 5cbd f5e1 c03d 5b30 d4bc
00000100: 7878 08be 945d afbd 4fbc f23d 8003 de3d
00000110: b6ea 16be f4d7 21bc b3c4 353e 1b0c a8bd
00000120: 7507 69bb c64d 173e 32cb 213e 41ef fbbc
00000130: 41f4 d13d 896b 08be 7a1d 043d c86b 6dbe
00000140: 6e6e 963c 9753 8d3c 765f 22be 8747 42be
00000150: 50c7 0c3b 214c 1a3e 7538 283e c01d 2ebc
00000160: e0ca 123e 7bd4 95bd 8557 e7bd 8183 1abe
00000170: 4b32 31bd 9d47 463d 5d0f 3abd ad01 7cbc
00000180: 20ed 843d 8f8e 143d a551 b53c 6c04 0d3e
00000190: 5fc8 29be d853 0b3e ae22 493e 2cf8 6fbd
000001a0: 716c b13d 0b56 083e c75c 2cbe 6aab bbbc
000001b0: d241 0b3d bcb8 63be 812d 4dbd 3833 06be
000001c0: 95e7 83bd e451 04be c1f3 3dbe 8202 6abd
000001d0: 1cb2 0c3e fe45 9f3d eb94 03bd 64ec 4fbe
000001e0: 323d 7e3c 5991 38be 0c73 143e e623 3a3d
000001f0: 2ab5 cebc 0a59 983c 86c3 003e 3509 b43d
00000200: f3dc 963d 5e7e 5bbe cd7f c2bd 3cc3 20be
00000210: a125 52bd 3b61 4cbd dafc b53d 2a36 05be
00000220: f0c6 143e 22eb 643d 1831 33bd 4962 a0bd
00000230: 6d6f 3b3d 2b3a 22be d353 5cbe b43b 1a3d
00000240: 4e2a 4ebc d946 16be 16a0 75be 5c68 2c3d
00000250: c35e 61bd 2c6b 7f3c d97f 163d 966f 013e
00000260: c4a7 dfba 0a08 0d3e 34eb 113e 44d0 f63d
00000270: 0ca9 0f3e 5210 32bc a518 1c3e 07b3 b2bc
00000280: d82a 103e 7817 d2bd 6d34 a83d b304 c7bd
00000290: f607 06be 202a 93bd 8c44 173e c44f a1bd
000002a0: 64f6 11be 741f 0d3e d841 debd ed35 ae3d
000002b0: 57cf 27be 3d20 1d3e 585a eb3d 5332 6f3c
000002c0: 485b a6bd f9a9 c9bc c76a 053c ca2e 4b3e
000002d0: effc b83d fc9c ccbc 5af0 1c3e e4c2 dc3c
000002e0: 5777 273e 7074 0b3e da27 b9bd 316e 3c3e
000002f0: 18a2 ecbd b4d0 3bbe 2e24 e23d e3e0 8c3d
00000300: c994 6d3d f15a 1f3d 1d2d cabd b5aa 0e3e
00000310: 7d1d 0b3b 0d56 22be ee6a b63c 7f89 293d
00000320: fd21 3ebe bf18 093e 8582 d73d ea82 84be
00000330: d852 02bd bd09 34be 0f6f 8e3d aac3 d7bd
00000340: 4b73 cf3d 35d6 1a3d 3160 eebd a1ec 24be
00000350: 42b1 34be 64c1 bebd 42ef 4f3d 004b ba3d
00000360: 9ecc bdbd 5dba 233e 5717 f1bd dc64 8abd
00000370: 4e4b bb3d 7e60 35be af1c ca3d 3241 4fbe
00000380: 8e56 d33c 10eb 9f3d 745b 073e 8f5e f33d
00000390: 4472 233d 4d9d 86bd a6ac e33b b4fb 1fbe
000003a0: ab8b 91be caca b2bd 83f6 3c3d b411 393d
000003b0: f33e ca3d 0fa3 a5bb 05ac 3b3d c005 ad3d
000003c0: 1e78 dc3d 7b34 0c3d 14bc 063d 38c9 c23d
000003d0: 0c9f 903b c994 dd3d 029e cf3c 05c4 a83d
000003e0: e85f 86be 498b 873d 8874 923d eb87 66be
000003f0: 81fd b2bd 10d7 3abe 7763 02be 94ae a33a

sequential_1/conv2d_3/BiasAdd/ReadVariableOp f4 [32]
0.07199948 -0.0002474808 0.031086309 0.07122208 0.04918776 -0.028616734 0.040439654 0.0058713765
0.015172847 -0.005529687 0.01826737 -0.011824468 -0.014883996 -0.023712343 0.0081895115 0.100283146
0.011132882 0.039592452 0.05783127 -0.007944453 -0.03994291 0.037084106 0.08700662 0.052399322
0.0029153551 0.0030520924 -0.1603714 0.013257058 0.001934243 -0.05405556 0.07345726 0.02603779
00000000: 7774 933d 50c0 81b9 b7a8 fe3c e2dc 913d
00000010: 1b79 493d a46d eabc 0da4 253d ad64 c03b
00000020: 8897 783c 6032 b5bb 74a5 953c 6abb 41bc
00000030: 01dc 73bc 6340 c2bc 4d2d 063c 4061 cd3d
00000040: b166 363c b22b 223d 7be0 6c3d 7329 02bc
00000050: 2d9b 23bd 81e5 173d 8730 b23d aca0 563d
00000060: 8b0f 3f3b 9d05 483b 6638 24be 2234 593c
00000070: 6d86 fd3a 5d69 5dbd c370 963d 344d d53c

sequential_1/conv2d_4/BiasAdd/ReadVariableOp f4 [64]
-0.02807184 -0.06052725 0.040351827 -0.0604805 0.014757731 -0.06710215 0.01477943 -0.0013398203
0.06257595 0.12540965 0.054431774 -0.028227977 0.04662963 0.042998 -0.0051396834 0.082078196
0.0043941145 0.017722847 0.030749638 -0.028673721 -0.04333522 -0.034324154 0.06581219 -0.01679433
-0.03267379 -0.016746247 -0.008004436 0.017372876 0.15259509 -0.10135444 0.038340386 0.037484024
-0.005626798 -0.10473364 -0.0064833765 0.08306276 -0.025565302 -0.0056049516 -0.028596386 -0.067677066
0.07078051 -0.069511585 -0.054626245 0.076608546 0.05792104 -0.15529782 0.021100648 -0.019809814
-0.0048039528 0.008523912 0.030632757 -0.03219089 0.11468546 -0.039371416 -0.013926457 0.11570356
0.035711754 0.017698433 -0.004552384 -0.036334652 -0.047726374 0.0040300055 -0.05507409 0.040191032
00000000: eaf6 e5bc 6ceb 77bd f547 253d 67ba 77bd
00000010: 69ca 713c da6c 89bd 6c25 723c e99c afba
00000020: d227 803d 636b 003e daf3 5e3d 5c3e e7bc
00000030: b6fe 3e3d ac1e 303d ca6a a8bb 9d18 a83d
00000040: 81fc 8f3b 812f 913c aae6 fb3c 27e5 eabc
00000050: 4680 31bd 7c97 0cbd 8bc8 863d 4394 89bc
00000060: f4d4 05bd 6d2f 89bc 0a25 03bc 9051 8e3c
00000070: e341 1c3e eb92 cfbd cf0a 1d3d d988 193d
00000080: 0161 b8bb 977e d6bd 8172 d4bb cf1c aa3d
00000090: 536e d1bc bea9 b7bb f842 eabc 469a 8abd
000000a0: 5ff5 903d 175c 8ebd c5bf 5fbd f1e4 9c3d
000000b0: 9d3e 6d3d 6406 1fbe 44db ac3c 3148 a2bc
000000c0: 7a6a 9dbb e1a7 0b3c 8cf1 fa3c 98da 03bd
000000d0: 36e0 ea3d ec43 21bd cb2b 64bc fdf5 ec3d
000000e0: 7d46 123d 4efc 903c 2a2c 95bb a5d3 14bd
000000f0: bb7c 43bd 230e 843b 5e95 61bd 5a9f 243d

sequential_1/conv2d_5/BiasAdd/ReadVariableOp f4 [64]
-0.053203147 -0.038442828 -0.038453504 -0.06953004 0.004001875 0.074113086 0.011923109 -0.01854262
0.030868802 0.107219175 -0.034341924 0.021484103 0.0021261058 0.110996395 -0.05768919 0.0055103567
-0.038228203 0.009645034 0.0023346073 0.013017807 -0.08018271 0.014219997 0.059683323 -0.017005505
0.068845116 -0.0034324222 0.0046468494 0.018543078 -0.05349583 -0.085815 0.00031087667 0.010603624
-0.035515513 -0.06577934 0.012338679 -0.04121929 0.0155783985 -0.07288079 0.0036795477 0.0063681146
-0.035027377 0.032066267 -0.12859128 -0.024618646 0.033369433 -0.013271588 -0.018481242 -0.01401513
-0.038322315 -0.014009441 0.13095124 -0.05519568 0.0029043613 -0.02167633 0.056477416 -0.057407912
0.08605321 -0.017852958 -0.07140834 -0.043000605 -0.017042952 0.025035081 0.023548432 -0.045063466
00000000: 8beb 59bd 3a76 1dbd 6c81 1dbd c465 8ebd
00000010: 2922 833b 9ac8 973d 2559 433c b1e6 97bc
00000020: 92e0 fc3c ba95 db3d 1eaa 0cbd 6eff af3c
00000030: 2356 0b3b 1452 e33d 804b 6cbd 3990 b43b
00000040: 2d95 1cbd 3406 1e3c 3600 193b a448 553c
00000050: d536 a4bd fefa 683c 8076 743d 214f 8bbc
00000060: abfe 8c3d 7df2 60bb 9944 983b a7e7 973c
00000070: 721e 5bbd c6bf afbd 29fd a239 d3ba 2d3c
00000080: b778 11bd 52b7 86bd 2c28 4a3c 8fd5 28bd
00000090: 8a3c 7f3c 8642 95bd 9124 713b 9eab d03b
000000a0: de78 0fbd eb57 033d 6fad 03be 0bad c9bc
000000b0: 63ae 083d 1371 59bc f965 97bc b79f 65bc
000000c0: dcf7 1cbd db87 65bc 1518 063e de14 62bd
000000d0: 1957 3e3b 8f92 b1bc dd54 673d 8f24 6bbd
000000e0: aa3c b03d 5e40 92bc 893e 92bd 6721 30bd
000000f0: a99d 8bbc 5f16 cd3c a4e8 c03c 7894 38bd

sequential_1/batch_normalization_7/batchnorm/mul_1;sequential_1/batch_normalization_7/batchnorm/add_1;sequential_1/dense_3/MatMul;sequential_1/dense_3/BiasAdd f4 [1, 32]
1.3986201 0.64392495 -8.215148 1.6870108 -3.648939 0.7738657 0.79094535 -5.8741975
3.8301885 12.01103 -2.0101254 -14.361456 1.270995 1.2426252 -3.1198282 0.5985273
11.021187 15.61429 1.2082815 15.659232 -3.0192854 -2.0558915 3.4824774 -1.4039595
-1.1682146 -4.764875 -2.104179 -1.7118056 0.9312051 0.6731528 16.392637 0.92814565
00000000: fc05 b33f 44d8 243f 3f71 03c1 f8ef d73f
00000010: 3788 69c0 101c 463f 657b 4a3f 6df9 bbc0
00000020: cf21 7540 2e2d 4041 e5a5 00c0 86c8 65c1
00000030: f7af a23f 580e 9f3f 44ab 47c0 1639 193f
00000040: c856 3041 22d4 7941 f8a8 9a3f 378c 7a41
00000050: f93b 41c0 ba93 03c0 e9e0 5e40 f2b4 b3bf
00000060: 0e88 95bf db79 98c0 deaa 06c0 721c dbbf
00000070: 7563 6e3f be53 2c3f 1f24 8341 f49a 6d3f

sequential_1/conv2d_4/Conv2D f4 [64, 3, 3, 32]
-0.0747547 -0.045235228 -0.08088441 -0.05390046 -0.09854748 -0.019660994 0.03866772 -0.035884265
0.04457779 0.047694054 -0.094993204 0.07915469 -0.06079812 0.05044386 0.05200298 -0.0045123445
-0.0901192 0.05392557 -0.021830063 0.036764402 -0.06661357 -0.0153048625 -0.07984532 -0.06108399
-0.030199211 0.084183596 0.005856075 0.015011214 0.01755795 -0.055919137 -0.10817204 0.0585034
0.060687557 0.01496709 -0.026050799 -0.02679275 0.043323092 -0.09688828 0.03245224 0.03230226
0.053279564 0.031523127 0.049210075 -0.030499047 -0.06309715 -0.096070215 -0.022290872 0.07237887
0.04750103 -0.09569076 0.064123556 -0.029465908 -0.01591123 0.03876501 0.02493624 -0.050295405
0.017201556 0.017719822 0.022149686 -0.09066287 0.011613266 -0.033762254 -0.005732584 -0.07876235
-0.010818732 0.03947712 -0.08299816 -0.010849851 -0.092002295 0.05062577 0.05329053 -0.004250985
0.025661498 0.011531275 -0.04325052 -0.048417483 -0.0862106 -0.028647607 -0.022764513 0.01705804
-0.044485666 -0.054668535 -0.0017156727 -0.012971017 -0.016156828 -0.005189742 -0.077445336 0.0049240435
0.027550854 0.039040785 -0.02572872 -0.00046180654 0.019037934 -0.16103166 0.013802123 -0.032517023
0.0055848905 -0.04810356 -0.011721114 0.093577944 -0.06643812 -0.066329785 0.011624087 0.002733267
-0.020605862 -0.011011348 -0.018234631 -0.02773522 -0.03173254 -0.08655161 0.022494173 -0.057490043
0.04443643 -0.02825453 0.044910103 -0.07924204 -0.03363778 -0.07556573 -0.056430746 -0.03252343
-0.1083442 -0.018630728 -0.020920817 0.013531726 -0.004058558 -0.048366643 -0.023272203 0.05422955
0.08804813 -0.05012948 -0.056521717 -0.083577156 -0.0136624165 -0.039523546 -0.08457913 -0.050186217
0.032797847 -0.099626884 -0.023835672 -0.017574124 -0.026478916 -0.02927569 0.013360294 0.03268999
-0.045602556 -0.027408153 -0.11093415 -0.05290498 -0.008905913 0.03719404 -0.07159665 -0.01915893
0.011683776 0.0022917287 -0.10586146 0.024628151 0.009206677 0.04469191 -0.00901386 0.1032272
-0.0016354565 -0.0468188 -0.043088917 -0.17908253 -0.10888708 0.041684896 0.06908624 -0.12388706
0.020077331 -0.058216527 -0.02909467 0.023723425 -0.08798423 -0.12947877 0.036350805 -0.007841836
-0.12750265 -0.07344747 0.0058847535 -0.044658333 0.05324114 -0.046939425 -0.036571357 0.02870343
-0.031864326 0.050674804 -0.014500246 -0.082482666 -0.09705184 0.0001722064 -0.011462388 -0.15694517
-0.053207252 -0.062349055 -0.06566047 0.0467892 -0.0400406 0.06499771 0.03315497 0.008711824
-0.02120356 0.06889916 -0.03626018 -0.07161558 -0.048231274 -0.08471664 -0.072616406 -0.026157789
0.028917765 -0.007461189 0.059239328 -0.022697395 0.0813697 0.032932714 -0.039347954 0.056941822
0.0034731997 -0.028472597 0.04491379 -0.024344185 0.045090634 -0.018640451 -0.007157987 -0.032836393
-0.040898267 -0.05996354 -0.05918163 0.014884236 0.03770166 0.00680106 -0.009155927 -0.027008401
-0.049761564 0.03175769 -0.0030329593 0.033542532 -0.030601786 -0.021486536 -0.07051493 -0.078409456
-0.052000575 0.020486472 -0.057638504 0.05760099 -0.011997512 -0.043457903 0.020614544 -0.017758712
-0.013090583 -0.019527847 -0.07164227 0.0021028756 -0.06012039 -0.023478063 -0.07192707 -0.056498945
00000000: fe18 99bd 9348 39bd baa6 a5bd bbc6 5cbd
00000010: 43d3 c9bd 1810 a1bc 0b62 1e3d 61fb 12bd
00000020: 3397 363d d75a 433d cc8b c2bd db1b a23d
00000030: 7307 79bd 399e 4e3d 1401 553d 4adc 93bb
00000040: 6a90 b8bd 0fe1 5c3d f6d4 b2bc 4596 163d
00000050: b26c 88bd 3fc1 7abc f185 a3bd 3533 7abd
00000060: 5664 f7bc 7368 ac3d 51e4 bf3b 98f1 753c
00000070: b1d5 8f3c 770b 65bd 4d89 ddbd 43a1 6f3d
00000080: 8493 783d 8738 753c 7c68 d5bc 787c dbbc
00000090: 8e73 313d 5d6d c6bd a4ec 043d 604f 043d
000000a0: ac3b 5a3d 651e 013d 8190 493d 23d9 f9bc
000000b0: 1439 81bd 76c0 c4bd 599b b6bc 5f3b 943d
000000c0: 7190 423d 84f9 c3bd 3653 833d 7d62 f1bc
000000d0: 4558 82bc 0fc8 1e3d 1647 cc3c 8e02 4ebd
000000e0: 47ea 8c3c 2929 913c 4273 b53c 74ad b9bd
000000f0: 9145 3e3c 4a4a 0abd 66d8 bbbb 284e a1bd
00000100: 0d41 31bc c3b2 213d f0fa a9bd 93c3 31bc
00000110: b36b bcbd f85c 4f3d 2c47 5a3d d94b 8bbb
00000120: 1038 d23c aced 3c3c 7527 31bd 6951 46bd
00000130: 2f8f b0bd 63ae eabc a57c babc 4dbd 8b3c
00000140: 9a36 36bd 1dec 5fbd 6ce0 e0ba 6384 54bc
00000150: 535b 84bc b60e aabb a99b 9ebd df59 a13b
00000160: 54b2 e13c 3be9 1f3d 09c5 d2bc a01e f2b9
00000170: 71f5 9b3c 7ce5 24be 4d22 623c 9230 05bd
00000180: 7501 b73b 3d08 45bd ea09 40bc cba5 bf3d
00000190: b610 88bd e9d7 87bd f472 3e3c 9c20 333b
000001a0: a0cd a8bc f168 34bc cb60 95bc f934 e3bc
000001b0: fbf9 01bd f841 b1bd b345 b83c ae7a 6bbd
000001c0: f902 363d 0b76 e7bc a8f3 373d a749 a2bd
000001d0: c5c7 09bd 35c2 9abd ed23 67bd 4a37 05bd
000001e0: 90e3 ddbd 789f 98bc 2262 abbc 2cb4 5d3c
000001f0: a7fd 84bb 1a1c 46bd 59a5 bebc ce1f 5e3d
00000200: 9452 b43d 9254 4dbd 5183 67bd 802a abbd
00000210: 54d8 5fbc 71e3 21bd d337 adbd 1090 4dbd
00000220: 0957 063d 2e09 ccbd 0743 c3bc 9cf7 8fbc
00000230: 50ea d8bc 92d3 efbc 22e5 5a3c f0e5 053d
00000240: bfc9 3abd 1087 e0bc 7231 e3bd e4b2 58bd
00000250: 1bea 11bc c758 183d 44a1 92bd 30f3 9cbc
00000260: 4f6d 3f3c d430 163b e5cd d8bd fac0 c93c
00000270: 9ad7 163c dd0e 373d deae 13bc c868 d33d
00000280: d05c d6ba 12c5 3fbd 017e 30bd 6961 37be
00000290: 3000 dfbd c8bd 2a3d 167d 8d3d 80b8 fdbd
000002a0: 3779 a43c 7474 6ebd f257 eebc a157 c23c
000002b0: 1331 b4bd 1596 04be 95e4 143d 0b7b 00bc
000002c0: 0e90 02be a16b 96bd e4d4 c03b a8eb 36bd
000002d0: 6213 5a3d 8e43 40bd d9cb 15bd 7523 eb3c
000002e0: 2b84 02bd 6290 4f3d 7192 6dbc acec a8bd
000002f0: 1dc3 c6bd 4e92 3439 bdcc 3bbc 3cb6 20be
00000300: d9ef 59bd b961 7fbd ff78 86bd 08a6 3f3d
00000310: 9d01 24bd 851d 853d 81cd 073d 0abc 0e3c
00000320: 17b3 adbc 011b 8d3d 8e85 14bd 30ab 92bd
00000330: 288e 45bd eb7f adbd e9b7 94bd dc48 d6bc
00000340: f3e4 ec3c fd7c f4bb f0a4 723d e3ef b9bc
00000350: 28a5 a63d 74e4 063d 522b 21bd d43b 693d
00000360: 9f9e 633b 5d3f e9bc 86f7 373d 756d c7bc
00000370: f5b0 383d dcb3 98bc 8c8d eabb 747f 06bd
00000380: f184 27bd 549c 75bd 7068 72bd 03dd 733c
00000390: 0e6d 1a3d 6ddb de3b be02 16bc b940 ddbc
000003a0: c8d2 4bbd 5a14 023d 9dc4 46bb e563 093d
000003b0: 99b0 fabc 8804 b0bc 226a 90bd 2395 a0bd
000003c0: 8efe 54bd 3fd3 a73c 5a16 6cbd 04ef 6b3d
000003d0: 3691 44bc ea00 32bd d5df a83c b87a 91bc
000003e0: e279 56bc ddf8 9fbc 2fb9 92bd 66d0 093b
000003f0: cc40 76bd 1155 c0bc 804e 93bd 706b 67bd

sequential_1/conv2d_5/Conv2D f4 [64, 3, 3, 64]
-0.06610767 -0.03140363 0.11075535 -0.006893824 -0.053866573 0.0049118716 -0.0765771 0.0057571977
0.056986574 -0.041351143 -0.101112105 -0.032802574 -0.057866655 0.018133791 0.082818374 0.019455869
-0.006987544 0.019983971 0.056620926 -0.013275578 -0.00720623 -0.015459565 0.04935895 0.07418973
-0.067621894 -0.011453581 -0.06407275 -0.031898905 0.030409137 0.12057109 -0.06462249 -0.019206641
-0.096833944 -0.01612399 0.019087864 0.030785555 0.05161128 -0.020158906 0.043316323 0.060366157
-0.0070491284 -0.020091355 -0.07792887 -0.049270652 0.023773495 0.05169669 -0.043764286 -0.005679889
-0.021343669 -0.043271273 0.023559371 0.05587634 -0.018691259 0.03470377 0.0238379 -0.0253218
0.030713081 0.011774029 -0.016353264 0.012033329 -0.057813115 -0.11067556 -0.038083214 0.033142287
0.018722571 -0.11008255 -0.028462421 0.032251887 0.022797769 -0.009987229 0.01288708 -0.057262793
0.015940702 -0.04341509 -0.06923445 -0.06705442 0.012471122 -0.02090954 0.04431534 -0.03396482
0.036407355 -0.046126038 -0.062311795 -0.08364877 -0.041034613 0.02357763 -0.0059650373 0.07063312
-0.029634342 -0.045204964 -0.02076791 0.05843724 0.019770667 -0.05788562 0.04318383 0.0070697567
0.037155688 0.0008960412 0.045790333 -0.022901645 0.058211785 -0.052730046 0.046348453 0.012446291
-0.034801953 0.010592638 -0.088097475 0.072818145 0.05466536 0.08114474 -0.066794366 0.02168067
0.09287232 -0.0067895264 -0.010684337 -0.04251286 0.0042234696 -0.100833565 -0.026827756 -0.0593352
-0.029664017 0.01265365 0.10461606 -0.06278631 -0.031053655 -0.07390953 0.029154293 0.025128875
-0.010078194 -0.027778076 -0.028471595 -0.04408069 0.06765002 0.08815671 -0.043303378 -0.0086754225
-0.031169353 0.007798762 0.015750924 -0.033612855 0.10870334 0.08402919 -0.05119003 -0.12223827
-0.017425114 -0.00758874 -0.011117336 0.017565383 -0.0649506 -0.00483152 -0.07594415 0.0708919
-0.018596282 -0.011020358 0.066612385 0.03751732 0.039302956 -0.023261579 -0.0017875419 -0.06827788
-0.020600183 -0.048239484 -0.054113694 -0.01576689 0.079242386 -0.021298394 0.029062778 0.039135266
-0.02147392 -0.10824537 0.04018053 0.01356237 0.05295429 0.021147117 -0.056805365 0.081759036
0.029730843 -0.062399462 -0.062384788 -0.059871793 0.029872961 0.07166753 -0.025275629 0.014368485
-0.008543251 0.025338277 -0.008289118 0.06780051 0.049890265 -0.017947657 -0.001741971 0.007633599
-0.016345695 0.086921826 0.013012911 0.027751181 -0.08456612 0.02621736 -0.034796175 0.030465048
0.0004977646 0.039059784 -0.0582153 -0.02263621 -0.11114364 0.0019885774 -0.08018252 0.068824686
-0.044371657 0.018934466 0.08810493 -0.08450939 0.05064459 -0.018281281 0.0017865589 0.017268581
-0.014829597 0.031568278 -0.022492463 -0.014274528 0.021932827 0.0346588 0.08410052 0.04591226
0.037541926 0.035907116 0.023344444 -0.018481582 -0.0090091955 0.021059996 -0.040811885 0.026653722
-0.056113873 0.08031804 0.023476766 0.017296668 -0.037928347 -0.018250272 0.071955584 -0.022977248
-0.11730335 0.07624948 -0.061580617 -0.028213285 0.0105326185 -0.053559847 -0.028049186 0.04053329
-0.06696608 -0.03441425 0.047418613 -0.07189558 -0.024799109 -0.043273173 0.016944246 -0.031676114
00000000: 7563 87bd 18a1 00bd b3d3 e23d 96e5 e1bb
00000010: 32a3 5cbd c4f3 a03b 74d4 9cbd e0a6 bc3b
00000020: c16a 693d d15f 29bd dd13 cfbd fe5b 06bd
00000030: 9605 6dbd 518d 943c ae9c a93d ea61 9f3c
00000040: c4f7 e4bb 6db5 a33c 58eb 673d cf81 59bc
00000050: 3d22 ecbb 1e4a 7dbc 9c2c 4a3d c9f0 973d
00000060: 597d 8abd cda7 3bbc 9338 83bd 6da8 02bd
00000070: 951c f93c faed f63d cc58 84bd 3f57 9dbc
00000080: e050 c6bd 7516 84bc 275e 9c3c fd31 fc3c
00000090: 5966 533d 4a24 a5bc 756c 313d 8142 773d
000000a0: 60fc e6bb a096 a4bc 2c99 9fbd 06d0 49bd
000000b0: a2c0 c23c e9bf 533d 2e42 33bd 5d1e babb
000000c0: ebd8 aebc 383d 31bd 95ff c03c 97de 643d
000000d0: 691e 99bc 8a25 0e3d b347 c33c aa6f cfbc
000000e0: 009a fb3c dbe7 403c 48f7 85bc 7127 453c
000000f0: 72cd 6cbd dea9 e2bd 25fd 1bbd 35c0 073d
00000100: 1460 993c f672 e1bd 062a e9bc 8e1a 043d
00000110: 63c2 ba3c 79a1 23bc 5524 533c 648c 6abd
00000120: 1396 823c 05d4 31bd cbca 8dbd d453 89bd
00000130: ad53 4c3c 7c4a abbc 0184 353d b21e 0bbd
00000140: e11f 153d a8ee 3cbd a73a 7fbd 0c50 abbd
00000150: e913 28bd e025 c13c 5c76 c3bb 19a8 903d
00000160: b8c3 f2bc d728 39bd 7721 aabc e35b 6f3d
00000170: 18f6 a13c 7919 6dbd 87e1 303d 6ba9 e73b
00000180: 9030 183d 4fe4 6a3a a58e 3b3d 3b9c bbbc
00000190: 7b6f 6e3d 76fb 57bd e0d7 3d3d 87eb 4b3c
000001a0: 7e8c 0ebd be8c 2d3c 736c b4bd ae21 953d
000001b0: c9e8 5f3d 372f a63d 7ccb 88bd a99b b13c
000001c0: d833 be3d ad7a debb 5b0d 2fbc f721 2ebd
000001d0: 0865 8a3b d481 cebd e2c5 dbbc 7709 73bd
000001e0: f401 f3bc 4151 4f3c f240 d63d 1c96 80bd
000001f0: 3c64 febc e15d 97bd fcd4 ee3c 12db cd3c
00000200: 021f 25bc d98e e3bc 433d e9bc f48d 34bd
00000210: 188c 8a3d 818b b43d e25e 31bd 5c23 0ebc
00000220: df56 ffbc c28c ff3b 1508 813c a2ad 09bd
00000230: db9f de3d 7f17 ac3d a3ac 51bd 0f58 fabd
00000240: 1dbf 8ebc f7aa f8bb 7d25 36bc 47e5 8f3c
00000250: d204 85bd ba51 9ebb 9b88 9bbd c62f 913d
00000260: 3b57 98bc bb8e 34bc 136c 883d c3ab 193d
00000270: 23fc 203d 118f bebc f44b eaba 46d5 8bbd
00000280: b7c1 a8bc c496 45bd 52a6 5dbd 9129 81bc
00000290: d549 a23d f879 aebc 1015 ee3c 4d4c 203d
000002a0: 13ea afbc c0af ddbd 5794 243d b434 5e3c
000002b0: 99e6 583d b83c ad3c beac 68bd 4871 a73d
000002c0: 198e f33c 9496 7fbd 3187 7fbd 203c 75bd
000002d0: 24b8 f43c 6dc6 923d d60e cfbc cb69 6b3c
000002e0: fef8 0bbc 3892 cf3c 15cf 07bc feda 8a3d
000002f0: bc59 4c3d f706 93bc d952 e4ba 4523 fa3b
00000300: 68e7 85bc 1204 b23d 1b34 553c 7256 e33c
00000310: 0031 adbd cac5 d63c 6f86 0ebd d691 f93c
00000320: 6b7c 023a 27fd 1f3d 2b73 6ebd 936f b9bc
00000330: 479f e3bd cb52 023b bc36 a4bd f5f3 8c3d
00000340: 0ebf 35bd 741c 9b3c 5c70 b43d 4213 adbd
00000350: b470 4f3d a0c2 95bc f82a ea3a d776 8d3c
00000360: d7f7 72bc bd4d 013d 1d42 b8bc b6df 69bc
00000370: 79ac b33c 63f6 0d3d e53c ac3d 7e0e 3c3d
00000380: 90c5 193d 5713 133d d93c bf3c b066 97bc
00000390: 4e9b 13bc 0386 ac3c 5d2a 27bd e858 da3c
000003a0: a9d7 65bd c97d a43d 5952 c03c beb1 8d3c
000003b0: c15a 1bbd 9881 95bc 735d 933d c83a bcbc
000003c0: bd3c f0bd b028 9c3d f53b 7cbd 8c1f e7bc
000003d0: 0191 2c3c 9261 5bbd 68c7 e5bc 3c06 263d
000003e0: 8325 89bd f5f5 0cbd 053a 423d fd3d 93bd
000003f0: 8027 cbbc 363f 31bd a9ce 8a3c d0be 01bd

sequential_1/dense_2/BiasAdd/ReadVariableOp f4 [32]
0.045697507 0.17404829 0.036118757 0.030250555 0.046077434 0.19602586 0.28145456 -0.009728142
-0.009682532 -0.050308604 0.05125588 0.018064026 0.20303455 -0.013591516 0.042260844 0.03615234
-0.047413778 -0.028344445 0.08610857 -0.043323945 0.017862171 0.047129598 -0.0061267647 0.078343734
0.09083936 0.03409257 0.03692759 0.044391353 0.274738 0.06244977 -0.018134793 0.20068899
00000000: 4f2d 3b3d b739 323e 43f1 133d 03d0 f73c
00000010: b1bb 3c3d 01bb 483e d01a 903e c962 1fbc
00000020: 7ca3 1ebc 6510 4ebd b0f1 513d 02fb 933c
00000030: 4ae8 4f3e f3ae 5ebc b519 2d3d 7a14 143d
00000040: f334 42bd 9c32 e8bc b159 b03d 7374 31bd
00000050: b053 923c f70a 413d 07c3 c8bb ae72 a03d
00000060: fd09 ba3d a7a4 0b3d 6241 173d b5d3 353d
00000070: 76aa 8c3e 54cb 7f3d 6b8f 94bc 6a81 4d3e

sequential_1/lambda_1/stft/hann_window/sub_2 f4 [255]
0.0 0.00015297532 0.0006117821 0.0013761818 0.002445668 0.0038196146 0.0054971576 0.0074772835
0.0097587705 0.012340218 0.015220076 0.018396556 0.021867722 0.025631458 0.029685438 0.03402722
0.03865409 0.043563277 0.04875174 0.054216325 0.05995366 0.06596029 0.072232485 0.078766376
0.08555809 0.092603356 0.09989792 0.10743728 0.11521685 0.12323186 0.13147742 0.13994846
0.14863983 0.15754619 0.1666621 0.17598194 0.18550006 0.1952106 0.20510766 0.21518517
0.22543693 0.23585671 0.24643812 0.2571746 0.26805976 0.27908677 0.290249 0.3015396
0.31295156 0.32447806 0.33611187 0.34784603 0.35967323 0.37158635 0.38357806 0.39564094
0.4077677 0.4199509 0.43218303 0.44445673 0.45676443 0.46909857 0.48145157 0.49381596
0.5061841 0.5185484 0.53090155 0.5432356 0.5555433 0.567817 0.58004916 0.59223235
0.6043591 0.61642206 0.6284137 0.6403268 0.65215397 0.6638881 0.675522 0.68704844
0.69846046 0.70975107 0.72091323 0.73194027 0.7428255 0.75356185 0.76414335 0.7745631
0.78481495 0.79489243 0.8047894 0.81450003 0.824018 0.83333796 0.8424539 0.8513602
0.8600516 0.8685226 0.87676823 0.88478315 0.89256275 0.90010214 0.9073967 0.91444194
0.9212336 0.9277676 0.9340397 0.9400463 0.94578373 0.9512482 0.95643675 0.9613459
0.96597284 0.9703146 0.9743686 0.9781323 0.98160344 0.98477995 0.9876598 0.9902413
0.9925227 0.99450284 0.9961804 0.9975543 0.99862385 0.9993882 0.99984705 1.0
0.99984705 0.9993882 0.99862385 0.9975543 0.9961804 0.99450284 0.9925227 0.9902412
0.98765975 0.98477995 0.98160344 0.97813225 0.9743686 0.97031456 0.9659728 0.9613459
0.9564367 0.9512483 0.9457836 0.9400463 0.9340397 0.9277675 0.92123353 0.9144419
0.9073967 0.900102 0.89256275 0.88478315 0.8767681 0.8685225 0.8600515 0.8513602
0.8424537 0.833338 0.824018 0.8145001 0.80478936 0.7948923 0.78481483 0.7745631
0.76414317 0.7535618 0.7428255 0.7319402 0.7209132 0.709751 0.69846046 0.68704826
0.67552185 0.6638882 0.6521539 0.64032674 0.6284137 0.61642176 0.6043589 0.59223217
0.5800493 0.56781685 0.55554324 0.5432356 0.53090125 0.51854825 0.5061839 0.49381605
0.48145148 0.46909848 0.4567644 0.44445652 0.43218288 0.41995072 0.4077678 0.39564085
0.38357797 0.37158632 0.35967305 0.34784585 0.33611175 0.32447815 0.3129515 0.30153954
0.29024902 0.2790866 0.2680596 0.2571745 0.246438 0.23585662 0.2254369 0.21518514
0.20510748 0.19521046 0.18550012 0.17598185 0.16666201 0.15754616 0.14863983 0.13994831
0.1314773 0.12323192 0.11521679 0.10743722 0.09989789 0.092603356 0.08555797 0.078766316
0.072232515 0.06596023 0.05995363 0.054216295 0.04875174 0.043563187 0.03865403 0.03402725
0.029685408 0.025631428 0.021867722 0.018396497 0.015220016 0.012340188 0.0097587705 0.0074772537
0.005497128 0.0038196146 0.0024456382 0.001376152 0.0006117821 0.00015297532 0.0
00000000: 0000 0000 0068 2039 0060 203a 0061 b43a
00000010: 8047 203b 8052 7a3b 8021 b43b 0004 f53b
00000020: 40e3 1f3c a02e 4a3c a05d 793c 60b4 963c
00000030: f023 b33c 10f9 d13c e02e f33c 2060 0b3d
00000040: c053 1e3d 686f 323d e8af 473d f011 5e3d
00000050: f891 753d 3016 873d a0ee 933d 4450 a13d
00000060: 1439 af3d d4a6 bd3d 4897 cc3d 1408 dc3d
00000070: d0f6 eb3d fc60 fc3d 04a2 063e a64e 0f3e
00000080: 0a35 183e ca53 213e 78a9 2a3e 9c34 343e
00000090: baf3 3d3e 4ae5 473e be07 523e 8059 5c3e
000000a0: f0d8 663e 6c84 713e 465a 7c3e 64ac 833e
000000b0: 213f 893e 76e4 8e3e 849b 943e 6663 9a3e
000000c0: 303b a03e fd21 a63e db16 ac3e e018 b23e
000000d0: 1727 b83e 9140 be3e 5864 c43e 7391 ca3e
000000e0: eec6 d03e ce03 d73e 1847 dd3e d58f e33e
000000f0: 07dd e93e b02d f03e d280 f63e 72d5 fc3e
00000100: 4895 013f 97bf 043f 2ae9 073f 7d11 0b3f
00000110: 1638 0e3f 745c 113f 1a7e 143f 8a9c 173f
00000120: 47b7 1a3f d6cd 1d3f b8df 203f 75ec 233f
00000130: 90f3 263f 92f4 293f 03ef 2c3f 68e2 2f3f
00000140: 4ece 323f 3fb2 353f c58d 383f 7060 3b3f
00000150: d029 3e3f 6ee9 403f e69e 433f c449 463f
00000160: a2e9 483f 127e 4b3f ae06 4e3f 1383 503f
00000170: d8f2 523f a355 553f 0fab 573f bef2 593f
00000180: 572c 5c3f 7f57 5e3f e273 603f 2681 623f
00000190: fe7e 643f 186d 663f 264b 683f de18 6a3f
000001a0: f7d5 6b3f 2d82 6d3f 3a1d 6f3f e0a6 703f
000001b0: e21e 723f 0185 733f 0ad9 743f c41a 763f
000001c0: ff49 773f 8a66 783f 3870 793f e166 7a3f
000001d0: 5d4a 7b3f 8a1a 7c3f 46d7 7c3f 7480 7d3f
000001e0: f815 7e3f bd97 7e3f ae05 7f3f b85f 7f3f
000001f0: d0a5 7f3f e8d7 7f3f faf5 7f3f 0000 803f
00000200: faf5 7f3f e8d7 7f3f d0a5 7f3f b85f 7f3f
00000210: ae05 7f3f bd97 7e3f f815 7e3f 7380 7d3f
00000220: 45d7 7c3f 8a1a 7c3f 5d4a 7b3f e066 7a3f
00000230: 3870 793f 8966 783f fe49 773f c41a 763f
00000240: 09d9 743f 0285 733f e01e 723f e0a6 703f
00000250: 3a1d 6f3f 2c82 6d3f f6d5 6b3f dd18 6a3f
00000260: 264b 683f 166d 663f fe7e 643f 2681 623f
00000270: e073 603f 7e57 5e3f 562c 5c3f bef2 593f
00000280: 0cab 573f a455 553f d8f2 523f 1483 503f
00000290: ad06 4e3f 107e 4b3f a0e9 483f c449 463f
000002a0: e39e 433f 6de9 403f d029 3e3f 6f60 3b3f
000002b0: c48d 383f 3eb2 353f 4ece 323f 65e2 2f3f
000002c0: 00ef 2c3f 94f4 293f 8ff3 263f 74ec 233f
000002d0: b8df 203f d1cd 1d3f 44b7 1a3f 879c 173f
000002e0: 1c7e 143f 725c 113f 1538 0e3f 7d11 0b3f
000002f0: 25e9 073f 94bf 043f 4595 013f 75d5 fc3e
00000300: cf80 f63e ad2d f03e 06dd e93e ce8f e33e
00000310: 1347 dd3e c803 d73e f1c6 d03e 7091 ca3e
00000320: 5564 c43e 9040 be3e 1127 b83e da18 b23e
00000330: d716 ac3e 0022 a63e 2e3b a03e 6463 9a3e
00000340: 859b 943e 70e4 8e3e 1c3f 893e 60ac 833e
00000350: 3e5a 7c3e 6684 713e eed8 663e 7e59 5c3e
00000360: b207 523e 40e5 473e bef3 3d3e 9634 343e
00000370: 72a9 2a3e c853 213e 0a35 183e 9c4e 0f3e
00000380: fca1 063e 0461 fc3d c8f6 eb3d 0c08 dc3d
00000390: 4497 cc3d d4a6 bd3d 0439 af3d 3c50 a13d
000003a0: a4ee 933d 2816 873d f091 753d e811 5e3d
000003b0: e8af 473d 506f 323d b053 1e3d 2860 0b3d
000003c0: d02e f33c 00f9 d13c f023 b33c 40b4 963c
000003d0: 605d 793c 802e 4a3c 40e3 1f3c c003 f53b
000003e0: 4021 b43b 8052 7a3b 0047 203b 0060 b43a
000003f0: 0060 203a 0068 2039 0000 0000

sequential_1/batch_normalization_4/FusedBatchNormV3 f4 [32]
14.026692 16.584568 17.039843 9.989376 16.957306 16.308617 3.745139 7.819754
7.6278706 7.01491 18.176476 4.092517 19.257042 16.21863 14.37377 14.605858
14.223927 2.51118 12.786989 5.2966456 3.5237973 8.7426 12.002672 16.907255
15.128359 11.37801 4.838355 6.8496222 13.801964 14.3973675 14.496155 19.067068
00000000: 556d 6041 32ad 8441 9951 8841 7cd4 1f41
00000010: 90a8 8741 0c78 8241 5bb0 6f40 6d3b fa40
00000020: 8417 f440 257a e040 6c69 9141 e6f5 8240
00000030: 6c0e 9a41 c1bf 8141 f6fa 6541 98b1 6941
00000040: 3495 6341 2cb7 2040 8297 4c41 1f7e a940
00000050: e585 6140 b1e1 0b41 f20a 4041 0f42 8741
00000060: c20d 7241 540c 3641 ced3 9a40 1b30 db40
00000070: d8d4 5c41 9e5b 6641 40f0 6741 5b89 9841

sequential_1/batch_normalization_4/FusedBatchNormV31 f4 [32]
-1.7209779 -0.40328318 -1.1884509 -0.9814448 -2.0533998 -1.3795717 -0.22609536 -0.34187403
-0.1817243 -0.17191595 -0.82706285 -0.14642604 -1.4388317 -0.13014743 -0.6014726 -1.9957969
-0.7235288 -0.17558397 -1.2219665 -0.14858454 -0.21679538 -0.47565758 -1.5159022 -1.6574765
-0.72726506 -0.51097125 -0.18053927 -0.34251842 -0.5057556 -0.1496523 -1.2937403 -1.6246986
00000000: 0149 dcbf 227b cebe 291f 98bf f73f 7bbf
00000010: e76a 03c0 ce95 b0bf 8b85 67be 1d0a afbe
00000020: ef15 3abe bc0a 30be 64ba 53bf b5f0 15be
00000030: a32b b8bf 5e45 05be 1cfa 19bf 4676 ffbf
00000040: 2f39 39bf 49cc 33be 6669 9cbf 8c26 18be
00000050: 9cff 5dbe 6489 f3be 1509 c2bf 3128 d4bf
00000060: 0b2e 3abf 03cf 02bf 49df 38be 935e afbe
00000070: 3379 01bf 743e 19be 4899 a5bf 20f6 cfbf

sequential_1/batch_normalization_5/FusedBatchNormV3 f4 [64]
3.33169 1.4348216 3.8943088 2.341428 1.4510514 3.5438442 3.449464 1.4308171
2.188038 1.9966421 1.6288806 1.5647599 1.1712534 1.5405382 1.9029951 2.1154919
2.5293403 4.1688523 1.8669358 2.136946 0.82404315 2.0325997 2.3212428 1.2754828
0.72679085 4.2071624 1.1547724 3.3735416 1.7588668 1.77457 3.2966328 3.0808868
2.6877272 2.3843415 2.935087 2.3283212 0.84007967 2.0347185 3.0380797 0.6536743
1.8452522 3.519917 3.348634 1.5810338 0.7305005 0.5336968 1.4955039 1.8770436
4.3836374 3.0182357 3.9263022 1.5917853 2.771811 2.175935 1.5613599 2.4877176
2.5774925 2.7287729 2.9343913 2.2242854 1.0749229 3.126742 1.5108981 2.9212668
00000000: 693a 5540 3ca8 b73f 5b3c 7940 f5d9 1540
00000010: 0dbc b93f 58ce 6240 05c4 5c40 0425 b73f
00000020: d108 0c40 f891 ff3f 297f d03f 0d4a c83f
00000030: a2eb 953f 5b30 c53f 5895 f33f 3864 0740
00000040: b6e0 2140 3d67 8540 c1f7 ee3f b9c3 0840
00000050: 7ef4 523f 1d16 0240 3e8f 1440 0543 a33f
00000060: f70e 3a3f 13a1 8640 95cf 933f 1be8 5740
00000070: 8c22 e13f 1c25 e33f 08fc 5240 402d 4540
00000080: b903 2c40 0d99 1840 77d8 3b40 3703 1540
00000090: 760f 573f d438 0240 e66f 4240 3357 273f
000000a0: 3931 ec3f 5246 6140 0550 5640 515f ca3f
000000b0: 1502 3b3f 5aa0 083f ac6c bf3f f742 f03f
000000c0: c246 8c40 c62a 4140 8948 7b40 9fbf cb3f
000000d0: 5a65 3140 8542 0b40 a4da c73f c436 1f40
000000e0: a3f5 2440 37a4 2e40 11cd 3b40 b15a 0e40
000000f0: 1397 893f 8a1c 4840 1c65 c13f 09f6 3a40

sequential_1/batch_normalization_5/FusedBatchNormV31 f4 [64]
-0.28388754 -0.3384249 -0.9590677 -0.20265427 -0.45043716 -0.43719524 -0.7927441 -0.51515424
-0.73920524 -0.58101755 -0.25041276 -0.52798843 -0.5116251 -0.49757478 -0.24038059 -0.593308
-0.5832727 -0.87977993 -0.67442054 -0.5029141 -0.44850278 -0.20097992 -0.95412344 -0.37778944
-0.3180534 -1.0919802 -0.27029365 -1.0838405 -0.7089824 -0.2720455 -0.65181845 -0.6178465
-0.77440226 -0.18608014 -0.56412625 -0.81566876 -0.31066215 -0.5659551 -0.9053369 -0.23328488
-0.542596 -0.29049465 -0.532862 -0.31658807 -0.42749262 -0.30234817 -0.30952886 -0.46516508
-0.83629185 -0.50417364 -0.7383708 -0.6074727 -0.88118494 -0.4052247 -0.33236843 -0.6311617
-0.4145035 -0.7707412 -0.4592155 -0.21408002 -0.3466263 -0.23605879 -0.26499552 -1.0170131
00000000: b559 91be 0746 adbe 7685 75bf 9a84 4fbe
00000010: b39f e6be 0ed8 dfbe 47f1 4abf 26e1 03bf
00000020: 8e3c 3dbf 91bd 14bf 1a36 80be 402a 07bf
00000030: ddf9 02bf 1fc2 febe 5426 76be 08e3 17bf
00000040: 5c51 15bf 4239 61bf d3a6 2cbf fabe 00bf
00000050: 28a2 e5be aecd 4dbe 6f41 74bf 9e6d c1be
00000060: e5d7 a2be 02c6 8bbf ee63 8abe 49bb 8abf
00000070: df7f 35bf 8c49 8bbe 93dd 26bf 302b 1ebf
00000080: 3a3f 46bf cb8b 3ebe 946a 10bf abcf 50bf
00000090: 1c0f 9fbe 6fe2 10bf 29c4 67bf 3be2 6ebe
000000a0: 92e7 0abf b7bb 94be a569 08bf d517 a2be
000000b0: 50e0 dabe 61cd 9abe 917a 9ebe 1e2a eebe
000000c0: 3917 56bf 8611 01bf de05 3dbf 5583 1bbf
000000d0: 5695 61bf 9d79 cfbe 322c aabe d093 21bf
000000e0: ce39 d4be 4c4f 45bf 4b1e ebbe cb37 5bbe
000000f0: 0179 b1be 65b9 71be 7ead 87be 7c2d 82bf

sequential_1/batch_normalization_6/FusedBatchNormV3 f4 [64]
1.0332289 2.2018824 2.4165795 1.3707846 1.4835459 0.9321884 1.5476735 0.33338165
0.6870278 0.67746615 1.9804375 0.58828217 1.1078819 1.2261609 0.684495 0.4645153
0.6112417 1.9408432 0.5848704 0.7459836 1.3329157 0.5119124 1.0169646 1.0880882
1.5191919 1.9063276 2.6093073 1.2807406 2.4194674 1.8352903 1.1395233 0.9999646
3.2023437 1.3829043 0.961885 2.19159 1.9555196 2.4062734 1.2470133 1.2077993
0.66895694 0.92304 1.3789002 0.43205518 1.3751953 1.1832844 3.6608396 0.40913674
2.1523228 1.4405799 0.9399504 2.1298504 0.7687937 2.334519 0.3911159 1.5334401
0.86893034 2.2021482 1.6274837 1.2498825 1.5955498 0.9817591 1.4252146 1.3293685
00000000: d840 843f a4eb 0c40 3da9 1a40 df75 af3f
00000010: d5e4 bd3f e6a3 6e3f 2a1a c63f 00b1 aa3e
00000020: 0ee1 2f3f 6c6e 2d3f fa7e fd3f a999 163f
00000030: 13cf 8d3f d7f2 9c3f 103b 2f3f f3d4 ed3e
00000040: 567a 1c3f 8d6d f83f 11ba 153f c8f8 3e3f
00000050: fb9c aa3f b10c 033f e52b 823f 7946 8b3f
00000060: e174 c23f 8b02 f43f e4fe 2640 4fef a33f
00000070: 8ed8 1a40 cbea ea3f e6db 913f aefd 7f3f
00000080: 33f3 4c40 0203 b13f 183e 763f 0343 0c40
00000090: 774e fa3f 6200 1a40 229e 9f3f 2b99 9a3f
000000a0: c340 2b3f 594c 6c3f cd7f b03f 5636 dd3e
000000b0: 6606 b03f dd75 973f 324b 6a40 5f7a d13e
000000c0: a8bf 0940 ec64 b83f 97a0 703f 784f 0840
000000d0: aacf 443f c268 1540 5840 c83e c447 c43f
000000e0: 3872 5e3f ffef 0c40 6351 d03f 26fc 9f3f
000000f0: fa3a cc3f 9054 7b3f 6f6d b63f bf28 aa3f

sequential_1/batch_normalization_6/FusedBatchNormV31 f4 [64]
-0.35373318 -0.14325596 -0.24701211 -0.2708463 -0.24611458 -0.74260384 -0.23167457 -0.9119701
-0.68442404 -0.73426247 -0.22449666 -0.9007928 -0.20520891 -0.44430792 -0.34463185 -0.7803304
-0.7184127 -0.23847659 -0.7276536 -0.3782692 -0.3250417 -0.654035 -0.35716838 -0.28726882
-0.65428 -0.21212456 -0.22559503 -0.5269588 -0.17703228 -0.2585364 -0.29658234 -0.24758048
-0.1886595 -0.24992953 -0.27136606 -0.1684346 -0.14406343 -0.18587704 -0.22277477 -0.2558057
-0.40568668 -0.53810334 -0.27048767 -0.5675934 -0.17053589 -0.32023042 -0.17495425 -0.37362444
-0.273826 -0.26650095 -0.7437668 -0.23074222 -0.35287094 -0.13716838 -0.60734034 -0.24807668
-1.0723588 -0.18465899 -0.23095217 -0.3570398 -0.19269566 -0.49778354 -0.60152644 -0.22804044
00000000: 841c b5be b1b1 12be bef0 7cbe 5eac 8abe
00000010: 7605 7cbe 491b 3ebf 193c 6dbe df76 69bf
00000020: 6a36 2fbf a0f8 3bbf 74e2 65be 5b9a 66bf
00000030: 4922 52be 547c e3be 9673 b0be bcc3 47bf
00000040: e5e9 37bf 3533 74be 8247 3abf 80ac c1be
00000050: de6b a6be d66e 27bf c6de b6be e614 93be
00000060: e57e 27bf 2e37 59be 6202 67be c6e6 06bf
00000070: f347 35be e25e 84be a4d9 97be bd85 7dbe
00000080: f52f 41be 87ed 7fbe 7ef0 8abe 1f7a 2cbe
00000090: 5d85 13be 8d56 3ebe 121f 64be f7f8 82be
000000a0: 2ab6 cfbe 24c1 09bf 5c7d 8abe cd4d 11bf
000000b0: f6a0 2ebe 3ef5 a3be 3527 33be b44b bfbe
000000c0: ec32 8cbe d072 88be 8067 3ebf b047 6cbe
000000d0: 80ab b4be de75 0cbe a87a 1bbf d007 7ebe
000000e0: 0e43 89bf 3f17 3dbe ba7e 6cbe eccd b6be
000000f0: 0352 45be 7cdd febe a3fd 19bf 6f83 69be

sequential_1/dense_2/MatMul f4 [32, 64]
-0.10448623 0.057149537 -0.017142974 -0.11373215 -0.041364077 0.20689486 0.21428484 -0.1374957
0.116222665 0.15673088 0.02620143 -0.23979597 0.000851254 -0.10429183 -0.13426405 0.15093182
-0.09961473 0.023219204 -0.1194177 0.05831831 0.052376658 0.21511722 0.14745924 -0.016837768
0.2140283 0.050641708 -0.08562047 -0.046690337 -0.2074948 0.0121613545 0.053547315 0.2499363
-0.041974626 -0.2983591 0.10337173 0.15859479 -0.24204351 -0.28293806 -0.19155253 0.14047031
-0.1498349 -0.17785302 -0.19996026 0.14274319 0.08605824 0.08273721 0.018781185 0.08725421
0.0050556893 -0.09394242 0.13207847 -0.3451557 0.13024433 0.010174617 0.09842024 -0.3224777
-0.055681247 0.080605 -0.25735763 -0.036454387 0.18500772 -0.09909432 -0.10500152 -0.31279743
-0.026232647 0.20667928 -0.14936198 -0.10647697 -0.045702774 0.2534267 0.20887932 0.19711016
0.037169807 0.040653355 0.03665261 0.036242068 0.03393273 0.28641436 -0.16443537 -0.085711144
-0.22580604 0.23207873 0.1312831 -0.009071941 -0.05776411 -0.16981351 0.17654233 -0.18960488
0.04996779 -0.09515381 -0.13263273 -0.03987665 -0.017448224 -0.1047764 0.015329255 -0.13511027
-0.22045735 -0.011793191 0.114316225 -0.060066834 -0.15092763 -0.15827669 0.040820822 -0.15720308
0.15061624 -0.12407123 -0.037614252 0.16482455 0.08783777 -0.1006562 0.23364681 0.16903965
-0.10433378 -0.055019137 0.017896995 -0.27328354 0.06258496 0.09954579 0.23953895 -0.13891332
0.098287515 0.2311294 -0.266952 0.07996427 -0.021188097 0.29070228 0.07340879 0.16641068
0.1981735 -0.044036444 -0.049339816 -0.2679677 0.15793775 0.14825065 -0.1294258 0.11278271
-0.17006795 -0.06956464 0.035085436 -0.18901819 -0.23150715 0.102730244 -0.19611377 0.017058631
-0.05147131 0.10905972 -0.20038909 0.1274921 0.12726659 -0.29690847 -0.22610684 0.07799654
-0.046999943 -0.033065334 0.27949053 0.18543045 0.079696625 0.20303825 -0.1446481 -0.22900666
-0.120354235 -0.13320896 -0.06648383 -0.05341103 0.051500946 -0.11027641 0.12758279 -0.005832295
-0.21297951 0.2491186 0.0765203 0.019067155 0.21023676 0.043727927 -0.097606815 0.062330693
0.15740497 0.10551332 -0.06962773 0.21379118 0.01323142 -0.25796047 -0.2503778 0.0015561256
0.0049520126 -0.170042 0.044773526 -0.28267556 -0.14587364 -0.21479219 -0.036739826 -0.16392636
-0.08245271 0.13512854 -0.11898146 0.10450153 0.106964976 0.1138336 0.1464765 -0.16656497
0.18967418 0.12920365 -0.3616763 -0.04031943 0.063618794 0.11826224 0.11958009 0.00034265046
0.051290408 -0.08626648 -0.10756118 -0.054832485 -0.13792911 -0.11837699 -0.11903192 -0.0060936483
0.2530239 0.09075286 -0.20123567 -0.14709505 -0.27969044 -0.19605546 0.2128242 0.22147988
-0.16830945 0.07657915 0.21498296 0.0192554 -0.2985678 -0.19536428 0.10047939 0.16183758
-0.05989931 -0.16850026 -0.16753176 0.03092039 -0.14035723 -0.0032940158 0.19657466 -0.21149938
-0.12002085 0.050271813 -0.093375936 -0.1884499 0.20893079 0.04041676 0.096093416 -0.037859865
-0.07261755 0.13807239 -0.14876603 -0.16008572 0.07719145 -0.13959308 -0.056472022 0.04696038
00000000: e0fc d5bd a215 6a3d 6c6f 8cbc 67ec e8bd
00000010: 616d 29bd 3fdc 533e 7c6d 5b3e accb 0cbe
00000020: 2606 ee3d 0f7e 203e 62a4 d63c 138d 75be
00000030: b026 5f3a f496 d5bd 847c 09be df8d 1a3e
00000040: cf02 ccbd 3336 be3c 4491 f4bd 2edf 6e3d
00000050: e888 563d b047 5c3e 8eff 163e 5cef 89bc
00000060: 3c2a 5b3e ae6d 4f3d c959 afbd 5e3e 3fbd
00000070: 8479 54be 6b40 473c 6e54 5b3d 4def 7f3e
00000080: 96ed 2bbd 86c2 98be 8fb4 d33d ac66 223e
00000090: 41da 77be 42dd 90be 5926 44be 73d7 0f3e
000000a0: 526e 19be 1a1f 36be 62c2 4cbe 452b 123e
000000b0: 4d3f b03d 2072 a93d 00db 993c 56b2 b23d
000000c0: 32aa a53b e264 c0bd 943f 073e 3fb8 b0be
000000d0: c55e 053e 70b3 263c 8d90 c93d cc1b a5be
000000e0: 0512 64bd 3c14 a53d 61c4 83be 3251 15bd
000000f0: aa72 3d3e f6f1 cabd 090b d7bd fc26 a0be
00000100: d9e5 d6bc bca3 533e 59f2 18be 9910 dabd
00000110: d532 3bbd 25c1 813e 76e4 553e 3fd7 493e
00000120: 5e3f 183d 2284 263d 0c21 163d 9072 143d
00000130: 0cfd 0a3d e7a4 923e bf61 28be 5389 afbd
00000140: b339 67be 0ca6 6d3e 146f 063e 7aa2 14bc
00000150: 0f9a 6cbd 98e3 2dbe 83c7 343e c827 42be
00000160: 06ab 4c3d 00e0 c2bd e0d0 07be b355 23bd
00000170: 94ef 8ebc 0295 d6bd 8e27 7b3c 595a 0abe
00000180: 92bf 61be 3a38 41bc a01e ea3d a408 76bd
00000190: c68c 1abe 4913 22be bc33 273d d8f9 20be
000001a0: 253b 1a3e 0f19 febd 6711 1abd c4c7 283e
000001b0: 4ae4 b33d d624 cebd 1c41 6f3e bb18 2d3e
000001c0: f3ac d5bd bf5b 61bd b89c 923c d2eb 8bbe
000001d0: 8b2c 803d aade cb3d b349 753e 4b3f 0ebe
000001e0: f74a c93d 2fad 6c3e efad 88be 4fc4 a33d
000001f0: a992 adbc eed6 943e 5957 963d 9067 2a3e
00000200: feed 4a3e 8f5f 34bd 8c18 4abd 1033 89be
00000210: 6fba 213e 05cf 173e 3288 04be 9ffa e63d
00000220: 4b26 2ebe e877 8ebd bfb5 0f3d fc8d 41be
00000230: 3610 6dbe 3c64 d23d 0cd2 48be 8bbe 8b3c
00000240: 95d3 52bd b45a df3d cc32 4dbe 4a8d 023e
00000250: 2c52 023e 6304 98be 8d88 67be a6bc 9f3d
00000260: 0383 40bd 846f 07bd 6219 8f3e 7be1 3d3e
00000270: fc37 a33d 42e9 4f3e a21e 14be b980 6abe
00000280: 487c f6bd ee67 08be ad28 88bd 86c5 5abd
00000290: a8f2 523d 99d8 e1bd 10a5 023e d61c bfbb
000002a0: 4d17 5abe f218 7f3e adb6 9c3d b932 9c3c
000002b0: 4e48 573e 0e1c 333d 15e6 c7bd 784e 7f3d
000002c0: c52e 213e 5e17 d83d fc98 8ebd 13ec 5a3e
000002d0: 99c8 583c 6513 84be 8531 80be e9f6 cb3a
000002e0: 7e44 a23b 7d1f 2ebe 7264 373d daba 90be
000002f0: e65f 15be 7cf2 5bbe 807c 16bd 50dc 27be
00000300: f7dc a8bd 235f 0a3e 8dac f3bd e604 d63d
00000310: 7410 db3d 9721 e93d f0fd 153e 0290 2abe
00000320: f339 423e f64d 043e a32d b9be fd25 25bd
00000330: 924a 823d 7933 f23d 68e6 f43d c4a5 b339
00000340: e415 523d 7bac b0bd 0949 dcbd 0798 60bd
00000350: 4a3d 0dbe a36f f2bd 02c7 f3bd 3aad c7bb
00000360: 598c 813e a3dc b93d b910 4ebe 16a0 16be
00000370: 9633 8fbe c3c2 48be 96ee 593e 9fcb 623e
00000380: 5059 2cbe 88d5 9c3d 7e24 5c3e 80bd 9d3c
00000390: e1dd 98be 930d 48be 23c8 cd3d c0b8 253e
000003a0: fb58 75bd 558b 2cbe 728d 2bbe c24c fd3c
000003b0: ceb9 0fbe 6ae0 57bb de4a 493e 4b93 58be
000003c0: 7ecd f5bd d1e9 4d3d e23b bfbd 03f9 40be
000003d0: f4f1 553e 0b8c 253d a0cc c43d f212 1bbd
000003e0: 83b8 94bd d962 0d3e 1f56 18be 83ed 23be
000003f0: 8d16 9e3d 7df1 0ebe 354f 67bd 8759 403d
